…
I0308 03:31:09.915786  3075 net.cpp:322] The NetState phase (0) differed from the phase (1) specified by a rule in layer data
I0308 03:31:09.916232  3075 net.cpp:49] Initializing net from parameters: 
name: "VGG_CNN_F"
state {
  phase: TRAIN
}
layer {
  name: "data"
  type: "Data"
  top: "data"
  top: "label"
  include {
    phase: TRAIN
  }
  transform_param {
    mirror: true
    mean_value: 128.49
    mean_value: 124.58
    mean_value: 115.19
  }
  data_param {
    source: "/cvgl/u/rsluo/daytime/training/training_data_shuffled.lmdb"
    batch_size: 32
    backend: LMDB
  }
}
layer {
  name: "conv1"
  type: "Convolution"
  bottom: "data"
  top: "conv1"
  convolution_param {
    num_output: 64
    kernel_size: 11
    stride: 4
    weight_filler {
      type: "xavier"
    }
    bias_filler {
      type: "constant"
      value: 0.1
    }
  }
}
layer {
  name: "relu1"
  type: "ReLU"
  bottom: "conv1"
  top: "conv1"
}
layer {
  name: "norm1"
  type: "LRN"
  bottom: "conv1"
  top: "norm1"
  lrn_param {
    local_size: 5
    alpha: 0.0005
    beta: 0.75
    k: 2
  }
}
layer {
  name: "pool1"
  type: "Pooling"
  bottom: "norm1"
  top: "pool1"
  pooling_param {
    pool: MAX
    kernel_size: 3
    stride: 2
  }
}
layer {
  name: "conv2"
  type: "Convolution"
  bottom: "pool1"
  top: "conv2"
  convolution_param {
    num_output: 256
    pad: 2
    kernel_size: 5
    weight_filler {
      type: "xavier"
    }
    bias_filler {
      type: "constant"
      value: 0.1
    }
  }
}
layer {
  name: "relu2"
  type: "ReLU"
  bottom: "conv2"
  top: "conv2"
}
layer {
  name: "norm2"
  type: "LRN"
  bottom: "conv2"
  top: "norm2"
  lrn_param {
    local_size: 5
    alpha: 0.0005
    beta: 0.75
    k: 2
  }
}
layer {
  name: "pool2"
  type: "Pooling"
  bottom: "norm2"
  top: "pool2"
  pooling_param {
    pool: MAX
    kernel_size: 3
    stride: 2
  }
}
layer {
  name: "conv3"
  type: "Convolution"
  bottom: "pool2"
  top: "conv3"
  convolution_param {
    num_output: 256
    pad: 1
    kernel_size: 3
    weight_filler {
      type: "xavier"
    }
    bias_filler {
      type: "constant"
      value: 0.1
    }
  }
}
layer {
  name: "relu3"
  type: "ReLU"
  bottom: "conv3"
  top: "conv3"
}
layer {
  name: "conv4"
  type: "Convolution"
  bottom: "conv3"
  top: "conv4"
  convolution_param {
    num_output: 256
    pad: 1
    kernel_size: 3
    weight_filler {
      type: "xavier"
    }
    bias_filler {
      type: "constant"
      value: 0.1
    }
  }
}
layer {
  name: "relu4"
  type: "ReLU"
  bottom: "conv4"
  top: "conv4"
}
layer {
  name: "conv5"
  type: "Convolution"
  bottom: "conv4"
  top: "conv5"
  convolution_param {
    num_output: 256
    pad: 1
    kernel_size: 3
    weight_filler {
      type: "xavier"
    }
    bias_filler {
      type: "constant"
      value: 0.1
    }
  }
}
layer {
  name: "relu5"
  type: "ReLU"
  bottom: "conv5"
  top: "conv5"
}
layer {
  name: "pool5"
  type: "Pooling"
  bottom: "conv5"
  top: "pool5"
  pooling_param {
    pool: MAX
    kernel_size: 3
    stride: 2
  }
}
layer {
  name: "conv6"
  type: "Convolution"
  bottom: "pool5"
  top: "conv6"
  convolution_param {
    num_output: 4096
    pad: 0
    kernel_size: 6
    stride: 6
    weight_filler {
      type: "xavier"
    }
    bias_filler {
      type: "constant"
      value: 0.1
    }
  }
}
layer {
  name: "relu6"
  type: "ReLU"
  bottom: "conv6"
  top: "conv6"
}
layer {
  name: "drop6"
  type: "Dropout"
  bottom: "conv6"
  top: "conv6"
  dropout_param {
    dropout_ratio: 0.5
  }
}
layer {
  name: "conv7"
  type: "Convolution"
  bottom: "conv6"
  top: "conv7"
  convolution_param {
    num_output: 4096
    pad: 0
    kernel_size: 1
    stride: 1
    weight_filler {
      type: "xavier"
    }
    bias_filler {
      type: "constant"
      value: 0.1
    }
  }
}
layer {
  name: "relu7"
  type: "ReLU"
  bottom: "conv7"
  top: "conv7"
}
layer {
  name: "drop7"
  type: "Dropout"
  bottom: "conv7"
  top: "conv7"
  dropout_param {
    dropout_ratio: 0.5
  }
}
layer {
  name: "conv8"
  type: "Convolution"
  bottom: "conv7"
  top: "conv8"
  convolution_param {
    num_output: 3
    pad: 0
    kernel_size: 1
    stride: 1
    weight_filler {
      type: "xavier"
    }
    bias_filler {
      type: "constant"
      value: 0.1
    }
  }
}
layer {
  name: "pool6"
  type: "Pooling"
  bottom: "conv8"
  top: "pool6"
  pooling_param {
    pool: AVE
    kernel_size: 2
    stride: 1
  }
}
layer {
  name: "loss"
  type: "SoftmaxWithLoss"
  bottom: "pool6"
  bottom: "label"
  top: "loss"
}
layer {
  name: "acc"
  type: "Accuracy"
  bottom: "pool6"
  bottom: "label"
  top: "acc"
  accuracy_param {
    top_k: 1
  }
}
I0308 03:31:09.916571  3075 layer_factory.hpp:76] Creating layer data
I0308 03:31:09.917496  3075 net.cpp:106] Creating Layer data
I0308 03:31:09.917604  3075 net.cpp:411] data -> data
I0308 03:31:09.917670  3075 net.cpp:411] data -> label
I0308 03:31:09.942245  3080 db_lmdb.cpp:38] Opened lmdb /cvgl/u/rsluo/daytime/training/training_data_shuffled.lmdb
I0308 03:31:10.251063  3075 data_layer.cpp:45] output data size: 32,3,400,400
I0308 03:31:10.395695  3075 net.cpp:150] Setting up data
I0308 03:31:10.395926  3075 net.cpp:157] Top shape: 32 3 400 400 (15360000)
I0308 03:31:10.395961  3075 net.cpp:157] Top shape: 32 (32)
I0308 03:31:10.395967  3075 net.cpp:165] Memory required for data: 61440128
I0308 03:31:10.395985  3075 layer_factory.hpp:76] Creating layer label_data_1_split
I0308 03:31:10.396013  3075 net.cpp:106] Creating Layer label_data_1_split
I0308 03:31:10.396039  3075 net.cpp:454] label_data_1_split <- label
I0308 03:31:10.396078  3075 net.cpp:411] label_data_1_split -> label_data_1_split_0
I0308 03:31:10.396126  3075 net.cpp:411] label_data_1_split -> label_data_1_split_1
I0308 03:31:10.396221  3075 net.cpp:150] Setting up label_data_1_split
I0308 03:31:10.396241  3075 net.cpp:157] Top shape: 32 (32)
I0308 03:31:10.396258  3075 net.cpp:157] Top shape: 32 (32)
I0308 03:31:10.396268  3075 net.cpp:165] Memory required for data: 61440384
I0308 03:31:10.396275  3075 layer_factory.hpp:76] Creating layer conv1
I0308 03:31:10.396314  3075 net.cpp:106] Creating Layer conv1
I0308 03:31:10.396324  3075 net.cpp:454] conv1 <- data
I0308 03:31:10.396347  3075 net.cpp:411] conv1 -> conv1
I0308 03:31:10.654834  3075 net.cpp:150] Setting up conv1
I0308 03:31:10.654891  3075 net.cpp:157] Top shape: 32 64 98 98 (19668992)
I0308 03:31:10.654901  3075 net.cpp:165] Memory required for data: 140116352
I0308 03:31:10.654945  3075 layer_factory.hpp:76] Creating layer relu1
I0308 03:31:10.654980  3075 net.cpp:106] Creating Layer relu1
I0308 03:31:10.654996  3075 net.cpp:454] relu1 <- conv1
I0308 03:31:10.655030  3075 net.cpp:397] relu1 -> conv1 (in-place)
I0308 03:31:10.655262  3075 net.cpp:150] Setting up relu1
I0308 03:31:10.655292  3075 net.cpp:157] Top shape: 32 64 98 98 (19668992)
I0308 03:31:10.655298  3075 net.cpp:165] Memory required for data: 218792320
I0308 03:31:10.655304  3075 layer_factory.hpp:76] Creating layer norm1
I0308 03:31:10.655324  3075 net.cpp:106] Creating Layer norm1
I0308 03:31:10.655335  3075 net.cpp:454] norm1 <- conv1
I0308 03:31:10.655346  3075 net.cpp:411] norm1 -> norm1
I0308 03:31:10.655798  3075 net.cpp:150] Setting up norm1
I0308 03:31:10.655828  3075 net.cpp:157] Top shape: 32 64 98 98 (19668992)
I0308 03:31:10.655881  3075 net.cpp:165] Memory required for data: 297468288
I0308 03:31:10.655889  3075 layer_factory.hpp:76] Creating layer pool1
I0308 03:31:10.655901  3075 net.cpp:106] Creating Layer pool1
I0308 03:31:10.655906  3075 net.cpp:454] pool1 <- norm1
I0308 03:31:10.655916  3075 net.cpp:411] pool1 -> pool1
I0308 03:31:10.656155  3075 net.cpp:150] Setting up pool1
I0308 03:31:10.656172  3075 net.cpp:157] Top shape: 32 64 49 49 (4917248)
I0308 03:31:10.656177  3075 net.cpp:165] Memory required for data: 317137280
I0308 03:31:10.656183  3075 layer_factory.hpp:76] Creating layer conv2
I0308 03:31:10.656206  3075 net.cpp:106] Creating Layer conv2
I0308 03:31:10.656213  3075 net.cpp:454] conv2 <- pool1
I0308 03:31:10.656221  3075 net.cpp:411] conv2 -> conv2
I0308 03:31:10.662626  3075 cudnn_conv_layer.cpp:198] Reallocating workspace storage: 19200
I0308 03:31:10.662683  3075 net.cpp:150] Setting up conv2
I0308 03:31:10.662696  3075 net.cpp:157] Top shape: 32 256 49 49 (19668992)
I0308 03:31:10.662703  3075 net.cpp:165] Memory required for data: 395813248
I0308 03:31:10.662737  3075 layer_factory.hpp:76] Creating layer relu2
I0308 03:31:10.662752  3075 net.cpp:106] Creating Layer relu2
I0308 03:31:10.662758  3075 net.cpp:454] relu2 <- conv2
I0308 03:31:10.662768  3075 net.cpp:397] relu2 -> conv2 (in-place)
I0308 03:31:10.663223  3075 net.cpp:150] Setting up relu2
I0308 03:31:10.663239  3075 net.cpp:157] Top shape: 32 256 49 49 (19668992)
I0308 03:31:10.663245  3075 net.cpp:165] Memory required for data: 474489216
I0308 03:31:10.663251  3075 layer_factory.hpp:76] Creating layer norm2
I0308 03:31:10.663266  3075 net.cpp:106] Creating Layer norm2
I0308 03:31:10.663272  3075 net.cpp:454] norm2 <- conv2
I0308 03:31:10.663285  3075 net.cpp:411] norm2 -> norm2
I0308 03:31:10.663540  3075 net.cpp:150] Setting up norm2
I0308 03:31:10.663557  3075 net.cpp:157] Top shape: 32 256 49 49 (19668992)
I0308 03:31:10.663561  3075 net.cpp:165] Memory required for data: 553165184
I0308 03:31:10.663574  3075 layer_factory.hpp:76] Creating layer pool2
I0308 03:31:10.663584  3075 net.cpp:106] Creating Layer pool2
I0308 03:31:10.663589  3075 net.cpp:454] pool2 <- norm2
I0308 03:31:10.663600  3075 net.cpp:411] pool2 -> pool2
I0308 03:31:10.664070  3075 net.cpp:150] Setting up pool2
I0308 03:31:10.664086  3075 net.cpp:157] Top shape: 32 256 24 24 (4718592)
I0308 03:31:10.664093  3075 net.cpp:165] Memory required for data: 572039552
I0308 03:31:10.664098  3075 layer_factory.hpp:76] Creating layer conv3
I0308 03:31:10.664116  3075 net.cpp:106] Creating Layer conv3
I0308 03:31:10.664122  3075 net.cpp:454] conv3 <- pool2
I0308 03:31:10.664131  3075 net.cpp:411] conv3 -> conv3
I0308 03:31:10.672530  3075 cudnn_conv_layer.cpp:198] Reallocating workspace storage: 27648
I0308 03:31:10.672579  3075 net.cpp:150] Setting up conv3
I0308 03:31:10.672592  3075 net.cpp:157] Top shape: 32 256 24 24 (4718592)
I0308 03:31:10.672598  3075 net.cpp:165] Memory required for data: 590913920
I0308 03:31:10.672622  3075 layer_factory.hpp:76] Creating layer relu3
I0308 03:31:10.672654  3075 net.cpp:106] Creating Layer relu3
I0308 03:31:10.672662  3075 net.cpp:454] relu3 <- conv3
I0308 03:31:10.672672  3075 net.cpp:397] relu3 -> conv3 (in-place)
I0308 03:31:10.672875  3075 net.cpp:150] Setting up relu3
I0308 03:31:10.672890  3075 net.cpp:157] Top shape: 32 256 24 24 (4718592)
I0308 03:31:10.672895  3075 net.cpp:165] Memory required for data: 609788288
I0308 03:31:10.672910  3075 layer_factory.hpp:76] Creating layer conv4
I0308 03:31:10.672926  3075 net.cpp:106] Creating Layer conv4
I0308 03:31:10.672931  3075 net.cpp:454] conv4 <- conv3
I0308 03:31:10.672946  3075 net.cpp:411] conv4 -> conv4
I0308 03:31:10.686972  3075 cudnn_conv_layer.cpp:198] Reallocating workspace storage: 27648
I0308 03:31:10.687028  3075 net.cpp:150] Setting up conv4
I0308 03:31:10.687044  3075 net.cpp:157] Top shape: 32 256 24 24 (4718592)
I0308 03:31:10.687050  3075 net.cpp:165] Memory required for data: 628662656
I0308 03:31:10.687064  3075 layer_factory.hpp:76] Creating layer relu4
I0308 03:31:10.687166  3075 net.cpp:106] Creating Layer relu4
I0308 03:31:10.687175  3075 net.cpp:454] relu4 <- conv4
I0308 03:31:10.687189  3075 net.cpp:397] relu4 -> conv4 (in-place)
I0308 03:31:10.687378  3075 net.cpp:150] Setting up relu4
I0308 03:31:10.687393  3075 net.cpp:157] Top shape: 32 256 24 24 (4718592)
I0308 03:31:10.687398  3075 net.cpp:165] Memory required for data: 647537024
I0308 03:31:10.687404  3075 layer_factory.hpp:76] Creating layer conv5
I0308 03:31:10.687422  3075 net.cpp:106] Creating Layer conv5
I0308 03:31:10.687427  3075 net.cpp:454] conv5 <- conv4
I0308 03:31:10.687436  3075 net.cpp:411] conv5 -> conv5
I0308 03:31:10.694535  3075 cudnn_conv_layer.cpp:198] Reallocating workspace storage: 27648
I0308 03:31:10.694566  3075 net.cpp:150] Setting up conv5
I0308 03:31:10.694576  3075 net.cpp:157] Top shape: 32 256 24 24 (4718592)
I0308 03:31:10.694581  3075 net.cpp:165] Memory required for data: 666411392
I0308 03:31:10.694602  3075 layer_factory.hpp:76] Creating layer relu5
I0308 03:31:10.694612  3075 net.cpp:106] Creating Layer relu5
I0308 03:31:10.694618  3075 net.cpp:454] relu5 <- conv5
I0308 03:31:10.694625  3075 net.cpp:397] relu5 -> conv5 (in-place)
I0308 03:31:10.695044  3075 net.cpp:150] Setting up relu5
I0308 03:31:10.695061  3075 net.cpp:157] Top shape: 32 256 24 24 (4718592)
I0308 03:31:10.695066  3075 net.cpp:165] Memory required for data: 685285760
I0308 03:31:10.695091  3075 layer_factory.hpp:76] Creating layer pool5
I0308 03:31:10.695118  3075 net.cpp:106] Creating Layer pool5
I0308 03:31:10.695124  3075 net.cpp:454] pool5 <- conv5
I0308 03:31:10.695133  3075 net.cpp:411] pool5 -> pool5
I0308 03:31:10.695384  3075 net.cpp:150] Setting up pool5
I0308 03:31:10.695399  3075 net.cpp:157] Top shape: 32 256 12 12 (1179648)
I0308 03:31:10.695406  3075 net.cpp:165] Memory required for data: 690004352
I0308 03:31:10.695412  3075 layer_factory.hpp:76] Creating layer conv6
I0308 03:31:10.695422  3075 net.cpp:106] Creating Layer conv6
I0308 03:31:10.695428  3075 net.cpp:454] conv6 <- pool5
I0308 03:31:10.695439  3075 net.cpp:411] conv6 -> conv6
I0308 03:31:11.080190  3075 cudnn_conv_layer.cpp:198] Reallocating workspace storage: 110592
I0308 03:31:11.080479  3075 net.cpp:150] Setting up conv6
I0308 03:31:11.080504  3075 net.cpp:157] Top shape: 32 4096 2 2 (524288)
I0308 03:31:11.080510  3075 net.cpp:165] Memory required for data: 692101504
I0308 03:31:11.080528  3075 layer_factory.hpp:76] Creating layer relu6
I0308 03:31:11.080562  3075 net.cpp:106] Creating Layer relu6
I0308 03:31:11.080592  3075 net.cpp:454] relu6 <- conv6
I0308 03:31:11.080613  3075 net.cpp:397] relu6 -> conv6 (in-place)
I0308 03:31:11.081071  3075 net.cpp:150] Setting up relu6
I0308 03:31:11.081089  3075 net.cpp:157] Top shape: 32 4096 2 2 (524288)
I0308 03:31:11.081094  3075 net.cpp:165] Memory required for data: 694198656
I0308 03:31:11.081099  3075 layer_factory.hpp:76] Creating layer drop6
I0308 03:31:11.081116  3075 net.cpp:106] Creating Layer drop6
I0308 03:31:11.081122  3075 net.cpp:454] drop6 <- conv6
I0308 03:31:11.081143  3075 net.cpp:397] drop6 -> conv6 (in-place)
I0308 03:31:11.081194  3075 net.cpp:150] Setting up drop6
I0308 03:31:11.081219  3075 net.cpp:157] Top shape: 32 4096 2 2 (524288)
I0308 03:31:11.081225  3075 net.cpp:165] Memory required for data: 696295808
I0308 03:31:11.081230  3075 layer_factory.hpp:76] Creating layer conv7
I0308 03:31:11.081246  3075 net.cpp:106] Creating Layer conv7
I0308 03:31:11.081253  3075 net.cpp:454] conv7 <- conv6
I0308 03:31:11.081261  3075 net.cpp:411] conv7 -> conv7
I0308 03:31:11.249663  3075 net.cpp:150] Setting up conv7
I0308 03:31:11.249703  3075 net.cpp:157] Top shape: 32 4096 2 2 (524288)
I0308 03:31:11.249713  3075 net.cpp:165] Memory required for data: 698392960
I0308 03:31:11.249729  3075 layer_factory.hpp:76] Creating layer relu7
I0308 03:31:11.249747  3075 net.cpp:106] Creating Layer relu7
I0308 03:31:11.249768  3075 net.cpp:454] relu7 <- conv7
I0308 03:31:11.249778  3075 net.cpp:397] relu7 -> conv7 (in-place)
I0308 03:31:11.250205  3075 net.cpp:150] Setting up relu7
I0308 03:31:11.250253  3075 net.cpp:157] Top shape: 32 4096 2 2 (524288)
I0308 03:31:11.250258  3075 net.cpp:165] Memory required for data: 700490112
I0308 03:31:11.250264  3075 layer_factory.hpp:76] Creating layer drop7
I0308 03:31:11.250277  3075 net.cpp:106] Creating Layer drop7
I0308 03:31:11.250283  3075 net.cpp:454] drop7 <- conv7
I0308 03:31:11.250305  3075 net.cpp:397] drop7 -> conv7 (in-place)
I0308 03:31:11.250345  3075 net.cpp:150] Setting up drop7
I0308 03:31:11.250363  3075 net.cpp:157] Top shape: 32 4096 2 2 (524288)
I0308 03:31:11.250375  3075 net.cpp:165] Memory required for data: 702587264
I0308 03:31:11.250380  3075 layer_factory.hpp:76] Creating layer conv8
I0308 03:31:11.250392  3075 net.cpp:106] Creating Layer conv8
I0308 03:31:11.250403  3075 net.cpp:454] conv8 <- conv7
I0308 03:31:11.250416  3075 net.cpp:411] conv8 -> conv8
I0308 03:31:11.251808  3075 cudnn_conv_layer.cpp:198] Reallocating workspace storage: 6291456
I0308 03:31:11.252079  3075 net.cpp:150] Setting up conv8
I0308 03:31:11.252095  3075 net.cpp:157] Top shape: 32 3 2 2 (384)
I0308 03:31:11.252101  3075 net.cpp:165] Memory required for data: 702588800
I0308 03:31:11.252111  3075 layer_factory.hpp:76] Creating layer pool6
I0308 03:31:11.252126  3075 net.cpp:106] Creating Layer pool6
I0308 03:31:11.252145  3075 net.cpp:454] pool6 <- conv8
I0308 03:31:11.252154  3075 net.cpp:411] pool6 -> pool6
I0308 03:31:11.252388  3075 net.cpp:150] Setting up pool6
I0308 03:31:11.252403  3075 net.cpp:157] Top shape: 32 3 1 1 (96)
I0308 03:31:11.252410  3075 net.cpp:165] Memory required for data: 702589184
I0308 03:31:11.252416  3075 layer_factory.hpp:76] Creating layer pool6_pool6_0_split
I0308 03:31:11.252424  3075 net.cpp:106] Creating Layer pool6_pool6_0_split
I0308 03:31:11.252429  3075 net.cpp:454] pool6_pool6_0_split <- pool6
I0308 03:31:11.252437  3075 net.cpp:411] pool6_pool6_0_split -> pool6_pool6_0_split_0
I0308 03:31:11.252446  3075 net.cpp:411] pool6_pool6_0_split -> pool6_pool6_0_split_1
I0308 03:31:11.252514  3075 net.cpp:150] Setting up pool6_pool6_0_split
I0308 03:31:11.252527  3075 net.cpp:157] Top shape: 32 3 1 1 (96)
I0308 03:31:11.252534  3075 net.cpp:157] Top shape: 32 3 1 1 (96)
I0308 03:31:11.252539  3075 net.cpp:165] Memory required for data: 702589952
I0308 03:31:11.252544  3075 layer_factory.hpp:76] Creating layer loss
I0308 03:31:11.252562  3075 net.cpp:106] Creating Layer loss
I0308 03:31:11.252569  3075 net.cpp:454] loss <- pool6_pool6_0_split_0
I0308 03:31:11.252576  3075 net.cpp:454] loss <- label_data_1_split_0
I0308 03:31:11.252591  3075 net.cpp:411] loss -> loss
…
I0308 03:31:11.255889  3075 net.cpp:322] The NetState phase (1) differed from the phase (0) specified by a rule in layer data
I0308 03:31:11.256310  3075 net.cpp:49] Initializing net from parameters: 
name: "VGG_CNN_F"
state {
  phase: TEST
}
layer {
  name: "data"
  type: "Data"
  top: "data"
  top: "label"
  include {
    phase: TEST
  }
  transform_param {
    mirror: false
    mean_value: 128.49
    mean_value: 124.58
    mean_value: 115.19
  }
  data_param {
    source: "/cvgl/u/rsluo/daytime/test/test_data_shuffled.lmdb"
    batch_size: 8
    backend: LMDB
  }
}
layer {
  name: "conv1"
  type: "Convolution"
  bottom: "data"
  top: "conv1"
  convolution_param {
    num_output: 64
    kernel_size: 11
    stride: 4
    weight_filler {
      type: "xavier"
    }
    bias_filler {
      type: "constant"
      value: 0.1
    }
  }
}
layer {
  name: "relu1"
  type: "ReLU"
  bottom: "conv1"
  top: "conv1"
}
layer {
  name: "norm1"
  type: "LRN"
  bottom: "conv1"
  top: "norm1"
  lrn_param {
    local_size: 5
    alpha: 0.0005
    beta: 0.75
    k: 2
  }
}
layer {
  name: "pool1"
  type: "Pooling"
  bottom: "norm1"
  top: "pool1"
  pooling_param {
    pool: MAX
    kernel_size: 3
    stride: 2
  }
}
layer {
  name: "conv2"
  type: "Convolution"
  bottom: "pool1"
  top: "conv2"
  convolution_param {
    num_output: 256
    pad: 2
    kernel_size: 5
    weight_filler {
      type: "xavier"
    }
    bias_filler {
      type: "constant"
      value: 0.1
    }
  }
}
layer {
  name: "relu2"
  type: "ReLU"
  bottom: "conv2"
  top: "conv2"
}
layer {
  name: "norm2"
  type: "LRN"
  bottom: "conv2"
  top: "norm2"
  lrn_param {
    local_size: 5
    alpha: 0.0005
    beta: 0.75
    k: 2
  }
}
layer {
  name: "pool2"
  type: "Pooling"
  bottom: "norm2"
  top: "pool2"
  pooling_param {
    pool: MAX
    kernel_size: 3
    stride: 2
  }
}
layer {
  name: "conv3"
  type: "Convolution"
  bottom: "pool2"
  top: "conv3"
  convolution_param {
    num_output: 256
    pad: 1
    kernel_size: 3
    weight_filler {
      type: "xavier"
    }
    bias_filler {
      type: "constant"
      value: 0.1
    }
  }
}
layer {
  name: "relu3"
  type: "ReLU"
  bottom: "conv3"
  top: "conv3"
}
layer {
  name: "conv4"
  type: "Convolution"
  bottom: "conv3"
  top: "conv4"
  convolution_param {
    num_output: 256
    pad: 1
    kernel_size: 3
    weight_filler {
      type: "xavier"
    }
    bias_filler {
      type: "constant"
      value: 0.1
    }
  }
}
layer {
  name: "relu4"
  type: "ReLU"
  bottom: "conv4"
  top: "conv4"
}
layer {
  name: "conv5"
  type: "Convolution"
  bottom: "conv4"
  top: "conv5"
  convolution_param {
    num_output: 256
    pad: 1
    kernel_size: 3
    weight_filler {
      type: "xavier"
    }
    bias_filler {
      type: "constant"
      value: 0.1
    }
  }
}
layer {
  name: "relu5"
  type: "ReLU"
  bottom: "conv5"
  top: "conv5"
}
layer {
  name: "pool5"
  type: "Pooling"
  bottom: "conv5"
  top: "pool5"
  pooling_param {
    pool: MAX
    kernel_size: 3
    stride: 2
  }
}
layer {
  name: "conv6"
  type: "Convolution"
  bottom: "pool5"
  top: "conv6"
  convolution_param {
    num_output: 4096
    pad: 0
    kernel_size: 6
    stride: 6
    weight_filler {
      type: "xavier"
    }
    bias_filler {
      type: "constant"
      value: 0.1
    }
  }
}
layer {
  name: "relu6"
  type: "ReLU"
  bottom: "conv6"
  top: "conv6"
}
layer {
  name: "drop6"
  type: "Dropout"
  bottom: "conv6"
  top: "conv6"
  dropout_param {
    dropout_ratio: 0.5
  }
}
layer {
  name: "conv7"
  type: "Convolution"
  bottom: "conv6"
  top: "conv7"
  convolution_param {
    num_output: 4096
    pad: 0
    kernel_size: 1
    stride: 1
    weight_filler {
      type: "xavier"
    }
    bias_filler {
      type: "constant"
      value: 0.1
    }
  }
}
layer {
  name: "relu7"
  type: "ReLU"
  bottom: "conv7"
  top: "conv7"
}
layer {
  name: "drop7"
  type: "Dropout"
  bottom: "conv7"
  top: "conv7"
  dropout_param {
    dropout_ratio: 0.5
  }
}
layer {
  name: "conv8"
  type: "Convolution"
  bottom: "conv7"
  top: "conv8"
  convolution_param {
    num_output: 3
    pad: 0
    kernel_size: 1
    stride: 1
    weight_filler {
      type: "xavier"
    }
    bias_filler {
      type: "constant"
      value: 0.1
    }
  }
}
layer {
  name: "pool6"
  type: "Pooling"
  bottom: "conv8"
  top: "pool6"
  pooling_param {
    pool: AVE
    kernel_size: 2
    stride: 1
  }
}
layer {
  name: "loss"
  type: "SoftmaxWithLoss"
  bottom: "pool6"
  bottom: "label"
  top: "loss"
}
layer {
  name: "acc"
  type: "Accuracy"
  bottom: "pool6"
  bottom: "label"
  top: "acc"
  accuracy_param {
    top_k: 1
  }
}
I0308 03:31:11.256582  3075 layer_factory.hpp:76] Creating layer data
I0308 03:31:11.256693  3075 net.cpp:106] Creating Layer data
I0308 03:31:11.256713  3075 net.cpp:411] data -> data
I0308 03:31:11.256731  3075 net.cpp:411] data -> label
I0308 03:31:11.396692  3083 db_lmdb.cpp:38] Opened lmdb /cvgl/u/rsluo/daytime/test/test_data_shuffled.lmdb
I0308 03:31:11.810305  3075 data_layer.cpp:45] output data size: 8,3,400,400
I0308 03:31:11.856475  3075 net.cpp:150] Setting up data
I0308 03:31:11.856706  3075 net.cpp:157] Top shape: 8 3 400 400 (3840000)
I0308 03:31:11.856724  3075 net.cpp:157] Top shape: 8 (8)
I0308 03:31:11.856730  3075 net.cpp:165] Memory required for data: 15360032
I0308 03:31:11.856745  3075 layer_factory.hpp:76] Creating layer label_data_1_split
I0308 03:31:11.856794  3075 net.cpp:106] Creating Layer label_data_1_split
I0308 03:31:11.856806  3075 net.cpp:454] label_data_1_split <- label
I0308 03:31:11.856823  3075 net.cpp:411] label_data_1_split -> label_data_1_split_0
I0308 03:31:11.856847  3075 net.cpp:411] label_data_1_split -> label_data_1_split_1
I0308 03:31:11.856961  3075 net.cpp:150] Setting up label_data_1_split
I0308 03:31:11.856981  3075 net.cpp:157] Top shape: 8 (8)
I0308 03:31:11.856991  3075 net.cpp:157] Top shape: 8 (8)
I0308 03:31:11.856998  3075 net.cpp:165] Memory required for data: 15360096
I0308 03:31:11.857004  3075 layer_factory.hpp:76] Creating layer conv1
I0308 03:31:11.857090  3075 net.cpp:106] Creating Layer conv1
I0308 03:31:11.857101  3075 net.cpp:454] conv1 <- data
I0308 03:31:11.857116  3075 net.cpp:411] conv1 -> conv1
I0308 03:31:11.861841  3075 net.cpp:150] Setting up conv1
I0308 03:31:11.861871  3075 net.cpp:157] Top shape: 8 64 98 98 (4917248)
I0308 03:31:11.861877  3075 net.cpp:165] Memory required for data: 35029088
I0308 03:31:11.861899  3075 layer_factory.hpp:76] Creating layer relu1
I0308 03:31:11.861918  3075 net.cpp:106] Creating Layer relu1
I0308 03:31:11.861932  3075 net.cpp:454] relu1 <- conv1
I0308 03:31:11.861942  3075 net.cpp:397] relu1 -> conv1 (in-place)
I0308 03:31:11.862179  3075 net.cpp:150] Setting up relu1
I0308 03:31:11.862197  3075 net.cpp:157] Top shape: 8 64 98 98 (4917248)
I0308 03:31:11.862203  3075 net.cpp:165] Memory required for data: 54698080
I0308 03:31:11.862210  3075 layer_factory.hpp:76] Creating layer norm1
I0308 03:31:11.862231  3075 net.cpp:106] Creating Layer norm1
I0308 03:31:11.862238  3075 net.cpp:454] norm1 <- conv1
I0308 03:31:11.862252  3075 net.cpp:411] norm1 -> norm1
I0308 03:31:11.862777  3075 net.cpp:150] Setting up norm1
I0308 03:31:11.862798  3075 net.cpp:157] Top shape: 8 64 98 98 (4917248)
I0308 03:31:11.862804  3075 net.cpp:165] Memory required for data: 74367072
I0308 03:31:11.862810  3075 layer_factory.hpp:76] Creating layer pool1
I0308 03:31:11.862826  3075 net.cpp:106] Creating Layer pool1
I0308 03:31:11.862834  3075 net.cpp:454] pool1 <- norm1
I0308 03:31:11.862844  3075 net.cpp:411] pool1 -> pool1
I0308 03:31:11.863157  3075 net.cpp:150] Setting up pool1
I0308 03:31:11.863176  3075 net.cpp:157] Top shape: 8 64 49 49 (1229312)
I0308 03:31:11.863183  3075 net.cpp:165] Memory required for data: 79284320
I0308 03:31:11.863189  3075 layer_factory.hpp:76] Creating layer conv2
I0308 03:31:11.863205  3075 net.cpp:106] Creating Layer conv2
I0308 03:31:11.863212  3075 net.cpp:454] conv2 <- pool1
I0308 03:31:11.863225  3075 net.cpp:411] conv2 -> conv2
I0308 03:31:11.869729  3075 cudnn_conv_layer.cpp:198] Reallocating workspace storage: 19200
I0308 03:31:11.869781  3075 net.cpp:150] Setting up conv2
I0308 03:31:11.869798  3075 net.cpp:157] Top shape: 8 256 49 49 (4917248)
I0308 03:31:11.869806  3075 net.cpp:165] Memory required for data: 98953312
I0308 03:31:11.869825  3075 layer_factory.hpp:76] Creating layer relu2
I0308 03:31:11.869842  3075 net.cpp:106] Creating Layer relu2
I0308 03:31:11.869856  3075 net.cpp:454] relu2 <- conv2
I0308 03:31:11.869866  3075 net.cpp:397] relu2 -> conv2 (in-place)
I0308 03:31:11.870363  3075 net.cpp:150] Setting up relu2
I0308 03:31:11.870383  3075 net.cpp:157] Top shape: 8 256 49 49 (4917248)
I0308 03:31:11.870390  3075 net.cpp:165] Memory required for data: 118622304
I0308 03:31:11.870398  3075 layer_factory.hpp:76] Creating layer norm2
I0308 03:31:11.870416  3075 net.cpp:106] Creating Layer norm2
I0308 03:31:11.870426  3075 net.cpp:454] norm2 <- conv2
I0308 03:31:11.870437  3075 net.cpp:411] norm2 -> norm2
I0308 03:31:11.870712  3075 net.cpp:150] Setting up norm2
I0308 03:31:11.870733  3075 net.cpp:157] Top shape: 8 256 49 49 (4917248)
I0308 03:31:11.870738  3075 net.cpp:165] Memory required for data: 138291296
I0308 03:31:11.870745  3075 layer_factory.hpp:76] Creating layer pool2
I0308 03:31:11.870772  3075 net.cpp:106] Creating Layer pool2
I0308 03:31:11.870781  3075 net.cpp:454] pool2 <- norm2
I0308 03:31:11.870791  3075 net.cpp:411] pool2 -> pool2
I0308 03:31:11.871330  3075 net.cpp:150] Setting up pool2
I0308 03:31:11.871351  3075 net.cpp:157] Top shape: 8 256 24 24 (1179648)
I0308 03:31:11.871356  3075 net.cpp:165] Memory required for data: 143009888
I0308 03:31:11.871363  3075 layer_factory.hpp:76] Creating layer conv3
I0308 03:31:11.871381  3075 net.cpp:106] Creating Layer conv3
I0308 03:31:11.871390  3075 net.cpp:454] conv3 <- pool2
I0308 03:31:11.871400  3075 net.cpp:411] conv3 -> conv3
I0308 03:31:11.871908  3084 blocking_queue.cpp:50] Waiting for data
I0308 03:31:11.879693  3075 net.cpp:150] Setting up conv3
I0308 03:31:11.879757  3075 net.cpp:157] Top shape: 8 256 24 24 (1179648)
I0308 03:31:11.879765  3075 net.cpp:165] Memory required for data: 147728480
I0308 03:31:11.879787  3075 layer_factory.hpp:76] Creating layer relu3
I0308 03:31:11.879801  3075 net.cpp:106] Creating Layer relu3
I0308 03:31:11.879808  3075 net.cpp:454] relu3 <- conv3
I0308 03:31:11.879817  3075 net.cpp:397] relu3 -> conv3 (in-place)
I0308 03:31:11.880300  3075 net.cpp:150] Setting up relu3
I0308 03:31:11.880326  3075 net.cpp:157] Top shape: 8 256 24 24 (1179648)
I0308 03:31:11.880332  3075 net.cpp:165] Memory required for data: 152447072
I0308 03:31:11.880339  3075 layer_factory.hpp:76] Creating layer conv4
I0308 03:31:11.880357  3075 net.cpp:106] Creating Layer conv4
I0308 03:31:11.880367  3075 net.cpp:454] conv4 <- conv3
I0308 03:31:11.880380  3075 net.cpp:411] conv4 -> conv4
I0308 03:31:11.889647  3075 net.cpp:150] Setting up conv4
I0308 03:31:11.889695  3075 net.cpp:157] Top shape: 8 256 24 24 (1179648)
I0308 03:31:11.889703  3075 net.cpp:165] Memory required for data: 157165664
I0308 03:31:11.889720  3075 layer_factory.hpp:76] Creating layer relu4
I0308 03:31:11.889742  3075 net.cpp:106] Creating Layer relu4
I0308 03:31:11.889762  3075 net.cpp:454] relu4 <- conv4
I0308 03:31:11.889775  3075 net.cpp:397] relu4 -> conv4 (in-place)
I0308 03:31:11.890012  3075 net.cpp:150] Setting up relu4
I0308 03:31:11.890032  3075 net.cpp:157] Top shape: 8 256 24 24 (1179648)
I0308 03:31:11.890038  3075 net.cpp:165] Memory required for data: 161884256
I0308 03:31:11.890053  3075 layer_factory.hpp:76] Creating layer conv5
I0308 03:31:11.890071  3075 net.cpp:106] Creating Layer conv5
I0308 03:31:11.890080  3075 net.cpp:454] conv5 <- conv4
I0308 03:31:11.890094  3075 net.cpp:411] conv5 -> conv5
I0308 03:31:11.899454  3075 net.cpp:150] Setting up conv5
I0308 03:31:11.899492  3075 net.cpp:157] Top shape: 8 256 24 24 (1179648)
I0308 03:31:11.899499  3075 net.cpp:165] Memory required for data: 166602848
I0308 03:31:11.899523  3075 layer_factory.hpp:76] Creating layer relu5
I0308 03:31:11.899544  3075 net.cpp:106] Creating Layer relu5
I0308 03:31:11.899554  3075 net.cpp:454] relu5 <- conv5
I0308 03:31:11.899564  3075 net.cpp:397] relu5 -> conv5 (in-place)
I0308 03:31:11.900084  3075 net.cpp:150] Setting up relu5
I0308 03:31:11.900106  3075 net.cpp:157] Top shape: 8 256 24 24 (1179648)
I0308 03:31:11.900112  3075 net.cpp:165] Memory required for data: 171321440
I0308 03:31:11.900120  3075 layer_factory.hpp:76] Creating layer pool5
I0308 03:31:11.900140  3075 net.cpp:106] Creating Layer pool5
I0308 03:31:11.900149  3075 net.cpp:454] pool5 <- conv5
I0308 03:31:11.900162  3075 net.cpp:411] pool5 -> pool5
I0308 03:31:11.900449  3075 net.cpp:150] Setting up pool5
I0308 03:31:11.900472  3075 net.cpp:157] Top shape: 8 256 12 12 (294912)
I0308 03:31:11.900480  3075 net.cpp:165] Memory required for data: 172501088
I0308 03:31:11.900485  3075 layer_factory.hpp:76] Creating layer conv6
I0308 03:31:11.900506  3075 net.cpp:106] Creating Layer conv6
I0308 03:31:11.900523  3075 net.cpp:454] conv6 <- pool5
I0308 03:31:11.900534  3075 net.cpp:411] conv6 -> conv6
I0308 03:31:12.359736  3075 cudnn_conv_layer.cpp:198] Reallocating workspace storage: 110592
I0308 03:31:12.359892  3075 net.cpp:150] Setting up conv6
I0308 03:31:12.359920  3075 net.cpp:157] Top shape: 8 4096 2 2 (131072)
I0308 03:31:12.359927  3075 net.cpp:165] Memory required for data: 173025376
I0308 03:31:12.359958  3075 layer_factory.hpp:76] Creating layer relu6
I0308 03:31:12.359990  3075 net.cpp:106] Creating Layer relu6
I0308 03:31:12.360005  3075 net.cpp:454] relu6 <- conv6
I0308 03:31:12.360023  3075 net.cpp:397] relu6 -> conv6 (in-place)
I0308 03:31:12.360514  3075 net.cpp:150] Setting up relu6
I0308 03:31:12.360535  3075 net.cpp:157] Top shape: 8 4096 2 2 (131072)
I0308 03:31:12.360541  3075 net.cpp:165] Memory required for data: 173549664
I0308 03:31:12.360548  3075 layer_factory.hpp:76] Creating layer drop6
I0308 03:31:12.360563  3075 net.cpp:106] Creating Layer drop6
I0308 03:31:12.360570  3075 net.cpp:454] drop6 <- conv6
I0308 03:31:12.360630  3075 net.cpp:397] drop6 -> conv6 (in-place)
I0308 03:31:12.360680  3075 net.cpp:150] Setting up drop6
I0308 03:31:12.360694  3075 net.cpp:157] Top shape: 8 4096 2 2 (131072)
I0308 03:31:12.360703  3075 net.cpp:165] Memory required for data: 174073952
I0308 03:31:12.360710  3075 layer_factory.hpp:76] Creating layer conv7
I0308 03:31:12.360735  3075 net.cpp:106] Creating Layer conv7
I0308 03:31:12.360744  3075 net.cpp:454] conv7 <- conv6
I0308 03:31:12.360767  3075 net.cpp:411] conv7 -> conv7
I0308 03:31:12.562217  3075 net.cpp:150] Setting up conv7
I0308 03:31:12.562276  3075 net.cpp:157] Top shape: 8 4096 2 2 (131072)
I0308 03:31:12.562284  3075 net.cpp:165] Memory required for data: 174598240
I0308 03:31:12.562304  3075 layer_factory.hpp:76] Creating layer relu7
I0308 03:31:12.562333  3075 net.cpp:106] Creating Layer relu7
I0308 03:31:12.562342  3075 net.cpp:454] relu7 <- conv7
I0308 03:31:12.562356  3075 net.cpp:397] relu7 -> conv7 (in-place)
I0308 03:31:12.562855  3075 net.cpp:150] Setting up relu7
I0308 03:31:12.562875  3075 net.cpp:157] Top shape: 8 4096 2 2 (131072)
I0308 03:31:12.562881  3075 net.cpp:165] Memory required for data: 175122528
I0308 03:31:12.562888  3075 layer_factory.hpp:76] Creating layer drop7
I0308 03:31:12.562902  3075 net.cpp:106] Creating Layer drop7
I0308 03:31:12.562908  3075 net.cpp:454] drop7 <- conv7
I0308 03:31:12.562917  3075 net.cpp:397] drop7 -> conv7 (in-place)
I0308 03:31:12.562969  3075 net.cpp:150] Setting up drop7
I0308 03:31:12.562983  3075 net.cpp:157] Top shape: 8 4096 2 2 (131072)
I0308 03:31:12.562989  3075 net.cpp:165] Memory required for data: 175646816
I0308 03:31:12.562995  3075 layer_factory.hpp:76] Creating layer conv8
I0308 03:31:12.563015  3075 net.cpp:106] Creating Layer conv8
I0308 03:31:12.563022  3075 net.cpp:454] conv8 <- conv7
I0308 03:31:12.563035  3075 net.cpp:411] conv8 -> conv8
I0308 03:31:12.564765  3075 cudnn_conv_layer.cpp:198] Reallocating workspace storage: 1572864
I0308 03:31:12.565048  3075 net.cpp:150] Setting up conv8
I0308 03:31:12.565070  3075 net.cpp:157] Top shape: 8 3 2 2 (96)
I0308 03:31:12.565080  3075 net.cpp:165] Memory required for data: 175647200
I0308 03:31:12.565094  3075 layer_factory.hpp:76] Creating layer pool6
I0308 03:31:12.565110  3075 net.cpp:106] Creating Layer pool6
I0308 03:31:12.565117  3075 net.cpp:454] pool6 <- conv8
I0308 03:31:12.565131  3075 net.cpp:411] pool6 -> pool6
I0308 03:31:12.565399  3075 net.cpp:150] Setting up pool6
I0308 03:31:12.565418  3075 net.cpp:157] Top shape: 8 3 1 1 (24)
I0308 03:31:12.565424  3075 net.cpp:165] Memory required for data: 175647296
I0308 03:31:12.565430  3075 layer_factory.hpp:76] Creating layer pool6_pool6_0_split
I0308 03:31:12.565443  3075 net.cpp:106] Creating Layer pool6_pool6_0_split
I0308 03:31:12.565448  3075 net.cpp:454] pool6_pool6_0_split <- pool6
I0308 03:31:12.565466  3075 net.cpp:411] pool6_pool6_0_split -> pool6_pool6_0_split_0
I0308 03:31:12.565482  3075 net.cpp:411] pool6_pool6_0_split -> pool6_pool6_0_split_1
I0308 03:31:12.565557  3075 net.cpp:150] Setting up pool6_pool6_0_split
I0308 03:31:12.565572  3075 net.cpp:157] Top shape: 8 3 1 1 (24)
I0308 03:31:12.565579  3075 net.cpp:157] Top shape: 8 3 1 1 (24)
I0308 03:31:12.565584  3075 net.cpp:165] Memory required for data: 175647488
I0308 03:31:12.565592  3075 layer_factory.hpp:76] Creating layer loss
I0308 03:31:12.565601  3075 net.cpp:106] Creating Layer loss
I0308 03:31:12.565608  3075 net.cpp:454] loss <- pool6_pool6_0_split_0
I0308 03:31:12.565615  3075 net.cpp:454] loss <- label_data_1_split_0
I0308 03:31:12.565624  3075 net.cpp:411] loss -> loss
…
