…
I0308 13:22:05.922679 16293 net.cpp:322] The NetState phase (0) differed from the phase (1) specified by a rule in layer data
I0308 13:22:05.923002 16293 net.cpp:49] Initializing net from parameters: 
name: "VGG_CNN_F"
state {
  phase: TRAIN
}
layer {
  name: "data"
  type: "Data"
  top: "data"
  top: "label"
  include {
    phase: TRAIN
  }
  transform_param {
    mirror: true
    mean_value: 126.348
    mean_value: 122.543
    mean_value: 114.744
  }
  data_param {
    source: "/cvgl/u/rsluo/daytime/training/training_data_shuffled.lmdb"
    batch_size: 32
    backend: LMDB
  }
}
layer {
  name: "conv1"
  type: "Convolution"
  bottom: "data"
  top: "conv1"
  convolution_param {
    num_output: 64
    kernel_size: 11
    stride: 4
    weight_filler {
      type: "xavier"
    }
    bias_filler {
      type: "constant"
      value: 0.1
    }
  }
}
layer {
  name: "relu1"
  type: "ReLU"
  bottom: "conv1"
  top: "conv1"
}
layer {
  name: "norm1"
  type: "LRN"
  bottom: "conv1"
  top: "norm1"
  lrn_param {
    local_size: 5
    alpha: 0.0005
    beta: 0.75
    k: 2
  }
}
layer {
  name: "pool1"
  type: "Pooling"
  bottom: "norm1"
  top: "pool1"
  pooling_param {
    pool: MAX
    kernel_size: 3
    stride: 2
  }
}
layer {
  name: "conv2"
  type: "Convolution"
  bottom: "pool1"
  top: "conv2"
  convolution_param {
    num_output: 256
    pad: 2
    kernel_size: 5
    weight_filler {
      type: "xavier"
    }
    bias_filler {
      type: "constant"
      value: 0.1
    }
  }
}
layer {
  name: "relu2"
  type: "ReLU"
  bottom: "conv2"
  top: "conv2"
}
layer {
  name: "norm2"
  type: "LRN"
  bottom: "conv2"
  top: "norm2"
  lrn_param {
    local_size: 5
    alpha: 0.0005
    beta: 0.75
    k: 2
  }
}
layer {
  name: "pool2"
  type: "Pooling"
  bottom: "norm2"
  top: "pool2"
  pooling_param {
    pool: MAX
    kernel_size: 3
    stride: 2
  }
}
layer {
  name: "conv3"
  type: "Convolution"
  bottom: "pool2"
  top: "conv3"
  convolution_param {
    num_output: 256
    pad: 1
    kernel_size: 3
    weight_filler {
      type: "xavier"
    }
    bias_filler {
      type: "constant"
      value: 0.1
    }
  }
}
layer {
  name: "relu3"
  type: "ReLU"
  bottom: "conv3"
  top: "conv3"
}
layer {
  name: "conv4"
  type: "Convolution"
  bottom: "conv3"
  top: "conv4"
  convolution_param {
    num_output: 256
    pad: 1
    kernel_size: 3
    weight_filler {
      type: "xavier"
    }
    bias_filler {
      type: "constant"
      value: 0.1
    }
  }
}
layer {
  name: "relu4"
  type: "ReLU"
  bottom: "conv4"
  top: "conv4"
}
layer {
  name: "conv5"
  type: "Convolution"
  bottom: "conv4"
  top: "conv5"
  convolution_param {
    num_output: 256
    pad: 1
    kernel_size: 3
    weight_filler {
      type: "xavier"
    }
    bias_filler {
      type: "constant"
      value: 0.1
    }
  }
}
layer {
  name: "relu5"
  type: "ReLU"
  bottom: "conv5"
  top: "conv5"
}
layer {
  name: "pool5"
  type: "Pooling"
  bottom: "conv5"
  top: "pool5"
  pooling_param {
    pool: MAX
    kernel_size: 3
    stride: 2
  }
}
layer {
  name: "conv6"
  type: "Convolution"
  bottom: "pool5"
  top: "conv6"
  convolution_param {
    num_output: 4096
    pad: 0
    kernel_size: 6
    stride: 6
    weight_filler {
      type: "xavier"
    }
    bias_filler {
      type: "constant"
      value: 0.1
    }
  }
}
layer {
  name: "relu6"
  type: "ReLU"
  bottom: "conv6"
  top: "conv6"
}
layer {
  name: "drop6"
  type: "Dropout"
  bottom: "conv6"
  top: "conv6"
  dropout_param {
    dropout_ratio: 0.5
  }
}
layer {
  name: "conv7"
  type: "Convolution"
  bottom: "conv6"
  top: "conv7"
  convolution_param {
    num_output: 4096
    pad: 0
    kernel_size: 1
    stride: 1
    weight_filler {
      type: "xavier"
    }
    bias_filler {
      type: "constant"
      value: 0.1
    }
  }
}
layer {
  name: "relu7"
  type: "ReLU"
  bottom: "conv7"
  top: "conv7"
}
layer {
  name: "drop7"
  type: "Dropout"
  bottom: "conv7"
  top: "conv7"
  dropout_param {
    dropout_ratio: 0.5
  }
}
layer {
  name: "conv8"
  type: "Convolution"
  bottom: "conv7"
  top: "conv8"
  convolution_param {
    num_output: 3
    pad: 0
    kernel_size: 1
    stride: 1
    weight_filler {
      type: "xavier"
    }
    bias_filler {
      type: "constant"
      value: 0.1
    }
  }
}
layer {
  name: "pool6"
  type: "Pooling"
  bottom: "conv8"
  top: "pool6"
  pooling_param {
    pool: AVE
    kernel_size: 2
    stride: 1
  }
}
layer {
  name: "loss"
  type: "SoftmaxWithLoss"
  bottom: "pool6"
  bottom: "label"
  top: "loss"
}
layer {
  name: "acc"
  type: "Accuracy"
  bottom: "pool6"
  bottom: "label"
  top: "acc"
  accuracy_param {
    top_k: 1
  }
}
I0308 13:22:05.923358 16293 layer_factory.hpp:76] Creating layer data
I0308 13:22:05.924078 16293 net.cpp:106] Creating Layer data
I0308 13:22:05.924170 16293 net.cpp:411] data -> data
I0308 13:22:05.924249 16293 net.cpp:411] data -> label
I0308 13:22:05.945106 16298 db_lmdb.cpp:38] Opened lmdb /cvgl/u/rsluo/daytime/training/training_data_shuffled.lmdb
I0308 13:22:05.963665 16293 data_layer.cpp:45] output data size: 32,3,400,400
I0308 13:22:06.121896 16293 net.cpp:150] Setting up data
I0308 13:22:06.121975 16293 net.cpp:157] Top shape: 32 3 400 400 (15360000)
I0308 13:22:06.121989 16293 net.cpp:157] Top shape: 32 (32)
I0308 13:22:06.121996 16293 net.cpp:165] Memory required for data: 61440128
I0308 13:22:06.122019 16293 layer_factory.hpp:76] Creating layer label_data_1_split
I0308 13:22:06.122051 16293 net.cpp:106] Creating Layer label_data_1_split
I0308 13:22:06.122063 16293 net.cpp:454] label_data_1_split <- label
I0308 13:22:06.122097 16293 net.cpp:411] label_data_1_split -> label_data_1_split_0
I0308 13:22:06.122117 16293 net.cpp:411] label_data_1_split -> label_data_1_split_1
I0308 13:22:06.122289 16293 net.cpp:150] Setting up label_data_1_split
I0308 13:22:06.122344 16293 net.cpp:157] Top shape: 32 (32)
I0308 13:22:06.122354 16293 net.cpp:157] Top shape: 32 (32)
I0308 13:22:06.122360 16293 net.cpp:165] Memory required for data: 61440384
I0308 13:22:06.122370 16293 layer_factory.hpp:76] Creating layer conv1
I0308 13:22:06.122414 16293 net.cpp:106] Creating Layer conv1
I0308 13:22:06.122426 16293 net.cpp:454] conv1 <- data
I0308 13:22:06.122444 16293 net.cpp:411] conv1 -> conv1
I0308 13:22:06.352223 16293 net.cpp:150] Setting up conv1
I0308 13:22:06.352270 16293 net.cpp:157] Top shape: 32 64 98 98 (19668992)
I0308 13:22:06.352279 16293 net.cpp:165] Memory required for data: 140116352
I0308 13:22:06.352313 16293 layer_factory.hpp:76] Creating layer relu1
I0308 13:22:06.352334 16293 net.cpp:106] Creating Layer relu1
I0308 13:22:06.352349 16293 net.cpp:454] relu1 <- conv1
I0308 13:22:06.352361 16293 net.cpp:397] relu1 -> conv1 (in-place)
I0308 13:22:06.352571 16293 net.cpp:150] Setting up relu1
I0308 13:22:06.352588 16293 net.cpp:157] Top shape: 32 64 98 98 (19668992)
I0308 13:22:06.352596 16293 net.cpp:165] Memory required for data: 218792320
I0308 13:22:06.352602 16293 layer_factory.hpp:76] Creating layer norm1
I0308 13:22:06.352622 16293 net.cpp:106] Creating Layer norm1
I0308 13:22:06.352628 16293 net.cpp:454] norm1 <- conv1
I0308 13:22:06.352639 16293 net.cpp:411] norm1 -> norm1
I0308 13:22:06.353165 16293 net.cpp:150] Setting up norm1
I0308 13:22:06.353185 16293 net.cpp:157] Top shape: 32 64 98 98 (19668992)
I0308 13:22:06.353229 16293 net.cpp:165] Memory required for data: 297468288
I0308 13:22:06.353238 16293 layer_factory.hpp:76] Creating layer pool1
I0308 13:22:06.353251 16293 net.cpp:106] Creating Layer pool1
I0308 13:22:06.353261 16293 net.cpp:454] pool1 <- norm1
I0308 13:22:06.353272 16293 net.cpp:411] pool1 -> pool1
I0308 13:22:06.353533 16293 net.cpp:150] Setting up pool1
I0308 13:22:06.353551 16293 net.cpp:157] Top shape: 32 64 49 49 (4917248)
I0308 13:22:06.353557 16293 net.cpp:165] Memory required for data: 317137280
I0308 13:22:06.353564 16293 layer_factory.hpp:76] Creating layer conv2
I0308 13:22:06.353581 16293 net.cpp:106] Creating Layer conv2
I0308 13:22:06.353587 16293 net.cpp:454] conv2 <- pool1
I0308 13:22:06.353600 16293 net.cpp:411] conv2 -> conv2
I0308 13:22:06.361012 16293 cudnn_conv_layer.cpp:198] Reallocating workspace storage: 19200
I0308 13:22:06.361078 16293 net.cpp:150] Setting up conv2
I0308 13:22:06.361094 16293 net.cpp:157] Top shape: 32 256 49 49 (19668992)
I0308 13:22:06.361101 16293 net.cpp:165] Memory required for data: 395813248
I0308 13:22:06.361125 16293 layer_factory.hpp:76] Creating layer relu2
I0308 13:22:06.361145 16293 net.cpp:106] Creating Layer relu2
I0308 13:22:06.361156 16293 net.cpp:454] relu2 <- conv2
I0308 13:22:06.361172 16293 net.cpp:397] relu2 -> conv2 (in-place)
I0308 13:22:06.361632 16293 net.cpp:150] Setting up relu2
I0308 13:22:06.361652 16293 net.cpp:157] Top shape: 32 256 49 49 (19668992)
I0308 13:22:06.361660 16293 net.cpp:165] Memory required for data: 474489216
I0308 13:22:06.361666 16293 layer_factory.hpp:76] Creating layer norm2
I0308 13:22:06.361685 16293 net.cpp:106] Creating Layer norm2
I0308 13:22:06.361690 16293 net.cpp:454] norm2 <- conv2
I0308 13:22:06.361701 16293 net.cpp:411] norm2 -> norm2
I0308 13:22:06.361942 16293 net.cpp:150] Setting up norm2
I0308 13:22:06.361961 16293 net.cpp:157] Top shape: 32 256 49 49 (19668992)
I0308 13:22:06.361968 16293 net.cpp:165] Memory required for data: 553165184
I0308 13:22:06.361974 16293 layer_factory.hpp:76] Creating layer pool2
I0308 13:22:06.361989 16293 net.cpp:106] Creating Layer pool2
I0308 13:22:06.361996 16293 net.cpp:454] pool2 <- norm2
I0308 13:22:06.362007 16293 net.cpp:411] pool2 -> pool2
I0308 13:22:06.362498 16293 net.cpp:150] Setting up pool2
I0308 13:22:06.362519 16293 net.cpp:157] Top shape: 32 256 24 24 (4718592)
I0308 13:22:06.362524 16293 net.cpp:165] Memory required for data: 572039552
I0308 13:22:06.362531 16293 layer_factory.hpp:76] Creating layer conv3
I0308 13:22:06.362548 16293 net.cpp:106] Creating Layer conv3
I0308 13:22:06.362555 16293 net.cpp:454] conv3 <- pool2
I0308 13:22:06.362566 16293 net.cpp:411] conv3 -> conv3
I0308 13:22:06.372136 16293 cudnn_conv_layer.cpp:198] Reallocating workspace storage: 27648
I0308 13:22:06.372194 16293 net.cpp:150] Setting up conv3
I0308 13:22:06.372210 16293 net.cpp:157] Top shape: 32 256 24 24 (4718592)
I0308 13:22:06.372218 16293 net.cpp:165] Memory required for data: 590913920
I0308 13:22:06.372242 16293 layer_factory.hpp:76] Creating layer relu3
I0308 13:22:06.372259 16293 net.cpp:106] Creating Layer relu3
I0308 13:22:06.372268 16293 net.cpp:454] relu3 <- conv3
I0308 13:22:06.372280 16293 net.cpp:397] relu3 -> conv3 (in-place)
I0308 13:22:06.372486 16293 net.cpp:150] Setting up relu3
I0308 13:22:06.372504 16293 net.cpp:157] Top shape: 32 256 24 24 (4718592)
I0308 13:22:06.372511 16293 net.cpp:165] Memory required for data: 609788288
I0308 13:22:06.372519 16293 layer_factory.hpp:76] Creating layer conv4
I0308 13:22:06.372534 16293 net.cpp:106] Creating Layer conv4
I0308 13:22:06.372540 16293 net.cpp:454] conv4 <- conv3
I0308 13:22:06.372552 16293 net.cpp:411] conv4 -> conv4
I0308 13:22:06.381297 16293 cudnn_conv_layer.cpp:198] Reallocating workspace storage: 27648
I0308 13:22:06.381351 16293 net.cpp:150] Setting up conv4
I0308 13:22:06.381368 16293 net.cpp:157] Top shape: 32 256 24 24 (4718592)
I0308 13:22:06.381376 16293 net.cpp:165] Memory required for data: 628662656
I0308 13:22:06.381392 16293 layer_factory.hpp:76] Creating layer relu4
I0308 13:22:06.381449 16293 net.cpp:106] Creating Layer relu4
I0308 13:22:06.381459 16293 net.cpp:454] relu4 <- conv4
I0308 13:22:06.381472 16293 net.cpp:397] relu4 -> conv4 (in-place)
I0308 13:22:06.381680 16293 net.cpp:150] Setting up relu4
I0308 13:22:06.381698 16293 net.cpp:157] Top shape: 32 256 24 24 (4718592)
I0308 13:22:06.381705 16293 net.cpp:165] Memory required for data: 647537024
I0308 13:22:06.381711 16293 layer_factory.hpp:76] Creating layer conv5
I0308 13:22:06.381727 16293 net.cpp:106] Creating Layer conv5
I0308 13:22:06.381734 16293 net.cpp:454] conv5 <- conv4
I0308 13:22:06.381745 16293 net.cpp:411] conv5 -> conv5
I0308 13:22:06.390629 16293 cudnn_conv_layer.cpp:198] Reallocating workspace storage: 27648
I0308 13:22:06.390686 16293 net.cpp:150] Setting up conv5
I0308 13:22:06.390703 16293 net.cpp:157] Top shape: 32 256 24 24 (4718592)
I0308 13:22:06.390709 16293 net.cpp:165] Memory required for data: 666411392
I0308 13:22:06.390733 16293 layer_factory.hpp:76] Creating layer relu5
I0308 13:22:06.390750 16293 net.cpp:106] Creating Layer relu5
I0308 13:22:06.390758 16293 net.cpp:454] relu5 <- conv5
I0308 13:22:06.390769 16293 net.cpp:397] relu5 -> conv5 (in-place)
I0308 13:22:06.391247 16293 net.cpp:150] Setting up relu5
I0308 13:22:06.391268 16293 net.cpp:157] Top shape: 32 256 24 24 (4718592)
I0308 13:22:06.391274 16293 net.cpp:165] Memory required for data: 685285760
I0308 13:22:06.391281 16293 layer_factory.hpp:76] Creating layer pool5
I0308 13:22:06.391300 16293 net.cpp:106] Creating Layer pool5
I0308 13:22:06.391307 16293 net.cpp:454] pool5 <- conv5
I0308 13:22:06.391321 16293 net.cpp:411] pool5 -> pool5
I0308 13:22:06.391589 16293 net.cpp:150] Setting up pool5
I0308 13:22:06.391608 16293 net.cpp:157] Top shape: 32 256 12 12 (1179648)
I0308 13:22:06.391614 16293 net.cpp:165] Memory required for data: 690004352
I0308 13:22:06.391620 16293 layer_factory.hpp:76] Creating layer conv6
I0308 13:22:06.391638 16293 net.cpp:106] Creating Layer conv6
I0308 13:22:06.391646 16293 net.cpp:454] conv6 <- pool5
I0308 13:22:06.391659 16293 net.cpp:411] conv6 -> conv6
I0308 13:22:06.794085 16293 cudnn_conv_layer.cpp:198] Reallocating workspace storage: 110592
I0308 13:22:06.794371 16293 net.cpp:150] Setting up conv6
I0308 13:22:06.794406 16293 net.cpp:157] Top shape: 32 4096 2 2 (524288)
I0308 13:22:06.794414 16293 net.cpp:165] Memory required for data: 692101504
I0308 13:22:06.794441 16293 layer_factory.hpp:76] Creating layer relu6
I0308 13:22:06.794459 16293 net.cpp:106] Creating Layer relu6
I0308 13:22:06.794488 16293 net.cpp:454] relu6 <- conv6
I0308 13:22:06.794507 16293 net.cpp:397] relu6 -> conv6 (in-place)
I0308 13:22:06.794968 16293 net.cpp:150] Setting up relu6
I0308 13:22:06.794996 16293 net.cpp:157] Top shape: 32 4096 2 2 (524288)
I0308 13:22:06.795002 16293 net.cpp:165] Memory required for data: 694198656
I0308 13:22:06.795008 16293 layer_factory.hpp:76] Creating layer drop6
I0308 13:22:06.795034 16293 net.cpp:106] Creating Layer drop6
I0308 13:22:06.795042 16293 net.cpp:454] drop6 <- conv6
I0308 13:22:06.795049 16293 net.cpp:397] drop6 -> conv6 (in-place)
I0308 13:22:06.795105 16293 net.cpp:150] Setting up drop6
I0308 13:22:06.795119 16293 net.cpp:157] Top shape: 32 4096 2 2 (524288)
I0308 13:22:06.795125 16293 net.cpp:165] Memory required for data: 696295808
I0308 13:22:06.795130 16293 layer_factory.hpp:76] Creating layer conv7
I0308 13:22:06.795145 16293 net.cpp:106] Creating Layer conv7
I0308 13:22:06.795151 16293 net.cpp:454] conv7 <- conv6
I0308 13:22:06.795171 16293 net.cpp:411] conv7 -> conv7
I0308 13:22:06.957988 16293 net.cpp:150] Setting up conv7
I0308 13:22:06.958045 16293 net.cpp:157] Top shape: 32 4096 2 2 (524288)
I0308 13:22:06.958052 16293 net.cpp:165] Memory required for data: 698392960
I0308 13:22:06.958067 16293 layer_factory.hpp:76] Creating layer relu7
I0308 13:22:06.958084 16293 net.cpp:106] Creating Layer relu7
I0308 13:22:06.958092 16293 net.cpp:454] relu7 <- conv7
I0308 13:22:06.958106 16293 net.cpp:397] relu7 -> conv7 (in-place)
I0308 13:22:06.958539 16293 net.cpp:150] Setting up relu7
I0308 13:22:06.958597 16293 net.cpp:157] Top shape: 32 4096 2 2 (524288)
I0308 13:22:06.958606 16293 net.cpp:165] Memory required for data: 700490112
I0308 13:22:06.958612 16293 layer_factory.hpp:76] Creating layer drop7
I0308 13:22:06.958639 16293 net.cpp:106] Creating Layer drop7
I0308 13:22:06.958645 16293 net.cpp:454] drop7 <- conv7
I0308 13:22:06.958653 16293 net.cpp:397] drop7 -> conv7 (in-place)
I0308 13:22:06.958698 16293 net.cpp:150] Setting up drop7
I0308 13:22:06.958709 16293 net.cpp:157] Top shape: 32 4096 2 2 (524288)
I0308 13:22:06.958714 16293 net.cpp:165] Memory required for data: 702587264
I0308 13:22:06.958719 16293 layer_factory.hpp:76] Creating layer conv8
I0308 13:22:06.958734 16293 net.cpp:106] Creating Layer conv8
I0308 13:22:06.958739 16293 net.cpp:454] conv8 <- conv7
I0308 13:22:06.958747 16293 net.cpp:411] conv8 -> conv8
I0308 13:22:06.960481 16293 cudnn_conv_layer.cpp:198] Reallocating workspace storage: 6291456
I0308 13:22:06.960782 16293 net.cpp:150] Setting up conv8
I0308 13:22:06.960798 16293 net.cpp:157] Top shape: 32 3 2 2 (384)
I0308 13:22:06.960804 16293 net.cpp:165] Memory required for data: 702588800
I0308 13:22:06.960816 16293 layer_factory.hpp:76] Creating layer pool6
I0308 13:22:06.960841 16293 net.cpp:106] Creating Layer pool6
I0308 13:22:06.960847 16293 net.cpp:454] pool6 <- conv8
I0308 13:22:06.960860 16293 net.cpp:411] pool6 -> pool6
I0308 13:22:06.961088 16293 net.cpp:150] Setting up pool6
I0308 13:22:06.961103 16293 net.cpp:157] Top shape: 32 3 1 1 (96)
I0308 13:22:06.961109 16293 net.cpp:165] Memory required for data: 702589184
I0308 13:22:06.961114 16293 layer_factory.hpp:76] Creating layer pool6_pool6_0_split
I0308 13:22:06.961122 16293 net.cpp:106] Creating Layer pool6_pool6_0_split
I0308 13:22:06.961138 16293 net.cpp:454] pool6_pool6_0_split <- pool6
I0308 13:22:06.961149 16293 net.cpp:411] pool6_pool6_0_split -> pool6_pool6_0_split_0
I0308 13:22:06.961159 16293 net.cpp:411] pool6_pool6_0_split -> pool6_pool6_0_split_1
I0308 13:22:06.961210 16293 net.cpp:150] Setting up pool6_pool6_0_split
I0308 13:22:06.961218 16293 net.cpp:157] Top shape: 32 3 1 1 (96)
I0308 13:22:06.961228 16293 net.cpp:157] Top shape: 32 3 1 1 (96)
I0308 13:22:06.961232 16293 net.cpp:165] Memory required for data: 702589952
I0308 13:22:06.961237 16293 layer_factory.hpp:76] Creating layer loss
I0308 13:22:06.961259 16293 net.cpp:106] Creating Layer loss
I0308 13:22:06.961266 16293 net.cpp:454] loss <- pool6_pool6_0_split_0
I0308 13:22:06.961272 16293 net.cpp:454] loss <- label_data_1_split_0
I0308 13:22:06.961279 16293 net.cpp:411] loss -> loss
…
I0308 13:22:06.963985 16293 net.cpp:322] The NetState phase (1) differed from the phase (0) specified by a rule in layer data
I0308 13:22:06.964254 16293 net.cpp:49] Initializing net from parameters: 
name: "VGG_CNN_F"
state {
  phase: TEST
}
layer {
  name: "data"
  type: "Data"
  top: "data"
  top: "label"
  include {
    phase: TEST
  }
  transform_param {
    mirror: false
    mean_value: 126.348
    mean_value: 122.543
    mean_value: 114.744
  }
  data_param {
    source: "/cvgl/u/rsluo/daytime/test/test_data_shuffled.lmdb"
    batch_size: 8
    backend: LMDB
  }
}
layer {
  name: "conv1"
  type: "Convolution"
  bottom: "data"
  top: "conv1"
  convolution_param {
    num_output: 64
    kernel_size: 11
    stride: 4
    weight_filler {
      type: "xavier"
    }
    bias_filler {
      type: "constant"
      value: 0.1
    }
  }
}
layer {
  name: "relu1"
  type: "ReLU"
  bottom: "conv1"
  top: "conv1"
}
layer {
  name: "norm1"
  type: "LRN"
  bottom: "conv1"
  top: "norm1"
  lrn_param {
    local_size: 5
    alpha: 0.0005
    beta: 0.75
    k: 2
  }
}
layer {
  name: "pool1"
  type: "Pooling"
  bottom: "norm1"
  top: "pool1"
  pooling_param {
    pool: MAX
    kernel_size: 3
    stride: 2
  }
}
layer {
  name: "conv2"
  type: "Convolution"
  bottom: "pool1"
  top: "conv2"
  convolution_param {
    num_output: 256
    pad: 2
    kernel_size: 5
    weight_filler {
      type: "xavier"
    }
    bias_filler {
      type: "constant"
      value: 0.1
    }
  }
}
layer {
  name: "relu2"
  type: "ReLU"
  bottom: "conv2"
  top: "conv2"
}
layer {
  name: "norm2"
  type: "LRN"
  bottom: "conv2"
  top: "norm2"
  lrn_param {
    local_size: 5
    alpha: 0.0005
    beta: 0.75
    k: 2
  }
}
layer {
  name: "pool2"
  type: "Pooling"
  bottom: "norm2"
  top: "pool2"
  pooling_param {
    pool: MAX
    kernel_size: 3
    stride: 2
  }
}
layer {
  name: "conv3"
  type: "Convolution"
  bottom: "pool2"
  top: "conv3"
  convolution_param {
    num_output: 256
    pad: 1
    kernel_size: 3
    weight_filler {
      type: "xavier"
    }
    bias_filler {
      type: "constant"
      value: 0.1
    }
  }
}
layer {
  name: "relu3"
  type: "ReLU"
  bottom: "conv3"
  top: "conv3"
}
layer {
  name: "conv4"
  type: "Convolution"
  bottom: "conv3"
  top: "conv4"
  convolution_param {
    num_output: 256
    pad: 1
    kernel_size: 3
    weight_filler {
      type: "xavier"
    }
    bias_filler {
      type: "constant"
      value: 0.1
    }
  }
}
layer {
  name: "relu4"
  type: "ReLU"
  bottom: "conv4"
  top: "conv4"
}
layer {
  name: "conv5"
  type: "Convolution"
  bottom: "conv4"
  top: "conv5"
  convolution_param {
    num_output: 256
    pad: 1
    kernel_size: 3
    weight_filler {
      type: "xavier"
    }
    bias_filler {
      type: "constant"
      value: 0.1
    }
  }
}
layer {
  name: "relu5"
  type: "ReLU"
  bottom: "conv5"
  top: "conv5"
}
layer {
  name: "pool5"
  type: "Pooling"
  bottom: "conv5"
  top: "pool5"
  pooling_param {
    pool: MAX
    kernel_size: 3
    stride: 2
  }
}
layer {
  name: "conv6"
  type: "Convolution"
  bottom: "pool5"
  top: "conv6"
  convolution_param {
    num_output: 4096
    pad: 0
    kernel_size: 6
    stride: 6
    weight_filler {
      type: "xavier"
    }
    bias_filler {
      type: "constant"
      value: 0.1
    }
  }
}
layer {
  name: "relu6"
  type: "ReLU"
  bottom: "conv6"
  top: "conv6"
}
layer {
  name: "drop6"
  type: "Dropout"
  bottom: "conv6"
  top: "conv6"
  dropout_param {
    dropout_ratio: 0.5
  }
}
layer {
  name: "conv7"
  type: "Convolution"
  bottom: "conv6"
  top: "conv7"
  convolution_param {
    num_output: 4096
    pad: 0
    kernel_size: 1
    stride: 1
    weight_filler {
      type: "xavier"
    }
    bias_filler {
      type: "constant"
      value: 0.1
    }
  }
}
layer {
  name: "relu7"
  type: "ReLU"
  bottom: "conv7"
  top: "conv7"
}
layer {
  name: "drop7"
  type: "Dropout"
  bottom: "conv7"
  top: "conv7"
  dropout_param {
    dropout_ratio: 0.5
  }
}
layer {
  name: "conv8"
  type: "Convolution"
  bottom: "conv7"
  top: "conv8"
  convolution_param {
    num_output: 3
    pad: 0
    kernel_size: 1
    stride: 1
    weight_filler {
      type: "xavier"
    }
    bias_filler {
      type: "constant"
      value: 0.1
    }
  }
}
layer {
  name: "pool6"
  type: "Pooling"
  bottom: "conv8"
  top: "pool6"
  pooling_param {
    pool: AVE
    kernel_size: 2
    stride: 1
  }
}
layer {
  name: "loss"
  type: "SoftmaxWithLoss"
  bottom: "pool6"
  bottom: "label"
  top: "loss"
}
layer {
  name: "acc"
  type: "Accuracy"
  bottom: "pool6"
  bottom: "label"
  top: "acc"
  accuracy_param {
    top_k: 1
  }
}
I0308 13:22:06.964448 16293 layer_factory.hpp:76] Creating layer data
I0308 13:22:06.964555 16293 net.cpp:106] Creating Layer data
I0308 13:22:06.964567 16293 net.cpp:411] data -> data
I0308 13:22:06.964581 16293 net.cpp:411] data -> label
I0308 13:22:07.008474 16300 db_lmdb.cpp:38] Opened lmdb /cvgl/u/rsluo/daytime/test/test_data_shuffled.lmdb
I0308 13:22:07.009654 16293 data_layer.cpp:45] output data size: 8,3,400,400
I0308 13:22:07.051975 16293 net.cpp:150] Setting up data
I0308 13:22:07.052026 16293 net.cpp:157] Top shape: 8 3 400 400 (3840000)
I0308 13:22:07.052039 16293 net.cpp:157] Top shape: 8 (8)
I0308 13:22:07.052044 16293 net.cpp:165] Memory required for data: 15360032
I0308 13:22:07.052053 16293 layer_factory.hpp:76] Creating layer label_data_1_split
I0308 13:22:07.052079 16293 net.cpp:106] Creating Layer label_data_1_split
I0308 13:22:07.052086 16293 net.cpp:454] label_data_1_split <- label
I0308 13:22:07.052098 16293 net.cpp:411] label_data_1_split -> label_data_1_split_0
I0308 13:22:07.052112 16293 net.cpp:411] label_data_1_split -> label_data_1_split_1
I0308 13:22:07.052203 16293 net.cpp:150] Setting up label_data_1_split
I0308 13:22:07.052217 16293 net.cpp:157] Top shape: 8 (8)
I0308 13:22:07.052223 16293 net.cpp:157] Top shape: 8 (8)
I0308 13:22:07.052227 16293 net.cpp:165] Memory required for data: 15360096
I0308 13:22:07.052232 16293 layer_factory.hpp:76] Creating layer conv1
I0308 13:22:07.052287 16293 net.cpp:106] Creating Layer conv1
I0308 13:22:07.052301 16293 net.cpp:454] conv1 <- data
I0308 13:22:07.052320 16293 net.cpp:411] conv1 -> conv1
I0308 13:22:07.056632 16293 net.cpp:150] Setting up conv1
I0308 13:22:07.056670 16293 net.cpp:157] Top shape: 8 64 98 98 (4917248)
I0308 13:22:07.056676 16293 net.cpp:165] Memory required for data: 35029088
I0308 13:22:07.056695 16293 layer_factory.hpp:76] Creating layer relu1
I0308 13:22:07.056707 16293 net.cpp:106] Creating Layer relu1
I0308 13:22:07.056713 16293 net.cpp:454] relu1 <- conv1
I0308 13:22:07.056725 16293 net.cpp:397] relu1 -> conv1 (in-place)
I0308 13:22:07.056952 16293 net.cpp:150] Setting up relu1
I0308 13:22:07.056978 16293 net.cpp:157] Top shape: 8 64 98 98 (4917248)
I0308 13:22:07.056984 16293 net.cpp:165] Memory required for data: 54698080
I0308 13:22:07.056989 16293 layer_factory.hpp:76] Creating layer norm1
I0308 13:22:07.057003 16293 net.cpp:106] Creating Layer norm1
I0308 13:22:07.057008 16293 net.cpp:454] norm1 <- conv1
I0308 13:22:07.057019 16293 net.cpp:411] norm1 -> norm1
I0308 13:22:07.057553 16293 net.cpp:150] Setting up norm1
I0308 13:22:07.057581 16293 net.cpp:157] Top shape: 8 64 98 98 (4917248)
I0308 13:22:07.057587 16293 net.cpp:165] Memory required for data: 74367072
I0308 13:22:07.057593 16293 layer_factory.hpp:76] Creating layer pool1
I0308 13:22:07.057606 16293 net.cpp:106] Creating Layer pool1
I0308 13:22:07.057612 16293 net.cpp:454] pool1 <- norm1
I0308 13:22:07.057623 16293 net.cpp:411] pool1 -> pool1
I0308 13:22:07.057875 16293 net.cpp:150] Setting up pool1
I0308 13:22:07.057901 16293 net.cpp:157] Top shape: 8 64 49 49 (1229312)
I0308 13:22:07.057907 16293 net.cpp:165] Memory required for data: 79284320
I0308 13:22:07.057914 16293 layer_factory.hpp:76] Creating layer conv2
I0308 13:22:07.057927 16293 net.cpp:106] Creating Layer conv2
I0308 13:22:07.057934 16293 net.cpp:454] conv2 <- pool1
I0308 13:22:07.057945 16293 net.cpp:411] conv2 -> conv2
I0308 13:22:07.063873 16293 cudnn_conv_layer.cpp:198] Reallocating workspace storage: 19200
I0308 13:22:07.063926 16293 net.cpp:150] Setting up conv2
I0308 13:22:07.063941 16293 net.cpp:157] Top shape: 8 256 49 49 (4917248)
I0308 13:22:07.063946 16293 net.cpp:165] Memory required for data: 98953312
I0308 13:22:07.063966 16293 layer_factory.hpp:76] Creating layer relu2
I0308 13:22:07.063982 16293 net.cpp:106] Creating Layer relu2
I0308 13:22:07.063989 16293 net.cpp:454] relu2 <- conv2
I0308 13:22:07.063998 16293 net.cpp:397] relu2 -> conv2 (in-place)
I0308 13:22:07.064445 16293 net.cpp:150] Setting up relu2
I0308 13:22:07.064472 16293 net.cpp:157] Top shape: 8 256 49 49 (4917248)
I0308 13:22:07.064478 16293 net.cpp:165] Memory required for data: 118622304
I0308 13:22:07.064484 16293 layer_factory.hpp:76] Creating layer norm2
I0308 13:22:07.064502 16293 net.cpp:106] Creating Layer norm2
I0308 13:22:07.064507 16293 net.cpp:454] norm2 <- conv2
I0308 13:22:07.064517 16293 net.cpp:411] norm2 -> norm2
I0308 13:22:07.064766 16293 net.cpp:150] Setting up norm2
I0308 13:22:07.064785 16293 net.cpp:157] Top shape: 8 256 49 49 (4917248)
I0308 13:22:07.064791 16293 net.cpp:165] Memory required for data: 138291296
I0308 13:22:07.064796 16293 layer_factory.hpp:76] Creating layer pool2
I0308 13:22:07.064806 16293 net.cpp:106] Creating Layer pool2
I0308 13:22:07.064811 16293 net.cpp:454] pool2 <- norm2
I0308 13:22:07.064820 16293 net.cpp:411] pool2 -> pool2
I0308 13:22:07.065299 16293 net.cpp:150] Setting up pool2
I0308 13:22:07.065327 16293 net.cpp:157] Top shape: 8 256 24 24 (1179648)
I0308 13:22:07.065333 16293 net.cpp:165] Memory required for data: 143009888
I0308 13:22:07.065338 16293 layer_factory.hpp:76] Creating layer conv3
I0308 13:22:07.065357 16293 net.cpp:106] Creating Layer conv3
I0308 13:22:07.065363 16293 net.cpp:454] conv3 <- pool2
I0308 13:22:07.065376 16293 net.cpp:411] conv3 -> conv3
I0308 13:22:07.073031 16293 net.cpp:150] Setting up conv3
I0308 13:22:07.073076 16293 net.cpp:157] Top shape: 8 256 24 24 (1179648)
I0308 13:22:07.073118 16293 net.cpp:165] Memory required for data: 147728480
I0308 13:22:07.073144 16293 layer_factory.hpp:76] Creating layer relu3
I0308 13:22:07.073158 16293 net.cpp:106] Creating Layer relu3
I0308 13:22:07.073173 16293 net.cpp:454] relu3 <- conv3
I0308 13:22:07.073186 16293 net.cpp:397] relu3 -> conv3 (in-place)
I0308 13:22:07.073628 16293 net.cpp:150] Setting up relu3
I0308 13:22:07.073660 16293 net.cpp:157] Top shape: 8 256 24 24 (1179648)
I0308 13:22:07.073667 16293 net.cpp:165] Memory required for data: 152447072
I0308 13:22:07.073673 16293 layer_factory.hpp:76] Creating layer conv4
I0308 13:22:07.073685 16293 net.cpp:106] Creating Layer conv4
I0308 13:22:07.073690 16293 net.cpp:454] conv4 <- conv3
I0308 13:22:07.073707 16293 net.cpp:411] conv4 -> conv4
I0308 13:22:07.084223 16293 net.cpp:150] Setting up conv4
I0308 13:22:07.084275 16293 net.cpp:157] Top shape: 8 256 24 24 (1179648)
I0308 13:22:07.084281 16293 net.cpp:165] Memory required for data: 157165664
I0308 13:22:07.084296 16293 layer_factory.hpp:76] Creating layer relu4
I0308 13:22:07.084311 16293 net.cpp:106] Creating Layer relu4
I0308 13:22:07.084317 16293 net.cpp:454] relu4 <- conv4
I0308 13:22:07.084328 16293 net.cpp:397] relu4 -> conv4 (in-place)
I0308 13:22:07.084534 16293 net.cpp:150] Setting up relu4
I0308 13:22:07.084563 16293 net.cpp:157] Top shape: 8 256 24 24 (1179648)
I0308 13:22:07.084579 16293 net.cpp:165] Memory required for data: 161884256
I0308 13:22:07.084585 16293 layer_factory.hpp:76] Creating layer conv5
I0308 13:22:07.084600 16293 net.cpp:106] Creating Layer conv5
I0308 13:22:07.084606 16293 net.cpp:454] conv5 <- conv4
I0308 13:22:07.084619 16293 net.cpp:411] conv5 -> conv5
I0308 13:22:07.092512 16293 net.cpp:150] Setting up conv5
I0308 13:22:07.092561 16293 net.cpp:157] Top shape: 8 256 24 24 (1179648)
I0308 13:22:07.092566 16293 net.cpp:165] Memory required for data: 166602848
I0308 13:22:07.092588 16293 layer_factory.hpp:76] Creating layer relu5
I0308 13:22:07.092605 16293 net.cpp:106] Creating Layer relu5
I0308 13:22:07.092612 16293 net.cpp:454] relu5 <- conv5
I0308 13:22:07.092622 16293 net.cpp:397] relu5 -> conv5 (in-place)
I0308 13:22:07.093052 16293 net.cpp:150] Setting up relu5
I0308 13:22:07.093080 16293 net.cpp:157] Top shape: 8 256 24 24 (1179648)
I0308 13:22:07.093086 16293 net.cpp:165] Memory required for data: 171321440
I0308 13:22:07.093091 16293 layer_factory.hpp:76] Creating layer pool5
I0308 13:22:07.093107 16293 net.cpp:106] Creating Layer pool5
I0308 13:22:07.093112 16293 net.cpp:454] pool5 <- conv5
I0308 13:22:07.093124 16293 net.cpp:411] pool5 -> pool5
I0308 13:22:07.093379 16293 net.cpp:150] Setting up pool5
I0308 13:22:07.093405 16293 net.cpp:157] Top shape: 8 256 12 12 (294912)
I0308 13:22:07.093410 16293 net.cpp:165] Memory required for data: 172501088
I0308 13:22:07.093416 16293 layer_factory.hpp:76] Creating layer conv6
I0308 13:22:07.093431 16293 net.cpp:106] Creating Layer conv6
I0308 13:22:07.093437 16293 net.cpp:454] conv6 <- pool5
I0308 13:22:07.093448 16293 net.cpp:411] conv6 -> conv6
I0308 13:22:07.485225 16293 cudnn_conv_layer.cpp:198] Reallocating workspace storage: 110592
I0308 13:22:07.485309 16293 net.cpp:150] Setting up conv6
I0308 13:22:07.485332 16293 net.cpp:157] Top shape: 8 4096 2 2 (131072)
I0308 13:22:07.485337 16293 net.cpp:165] Memory required for data: 173025376
I0308 13:22:07.485355 16293 layer_factory.hpp:76] Creating layer relu6
I0308 13:22:07.485379 16293 net.cpp:106] Creating Layer relu6
I0308 13:22:07.485394 16293 net.cpp:454] relu6 <- conv6
I0308 13:22:07.485409 16293 net.cpp:397] relu6 -> conv6 (in-place)
I0308 13:22:07.485841 16293 net.cpp:150] Setting up relu6
I0308 13:22:07.485868 16293 net.cpp:157] Top shape: 8 4096 2 2 (131072)
I0308 13:22:07.485874 16293 net.cpp:165] Memory required for data: 173549664
I0308 13:22:07.485880 16293 layer_factory.hpp:76] Creating layer drop6
I0308 13:22:07.485894 16293 net.cpp:106] Creating Layer drop6
I0308 13:22:07.485899 16293 net.cpp:454] drop6 <- conv6
I0308 13:22:07.485908 16293 net.cpp:397] drop6 -> conv6 (in-place)
I0308 13:22:07.485988 16293 net.cpp:150] Setting up drop6
I0308 13:22:07.486001 16293 net.cpp:157] Top shape: 8 4096 2 2 (131072)
I0308 13:22:07.486006 16293 net.cpp:165] Memory required for data: 174073952
I0308 13:22:07.486013 16293 layer_factory.hpp:76] Creating layer conv7
I0308 13:22:07.486032 16293 net.cpp:106] Creating Layer conv7
I0308 13:22:07.486037 16293 net.cpp:454] conv7 <- conv6
I0308 13:22:07.486052 16293 net.cpp:411] conv7 -> conv7
I0308 13:22:07.658808 16293 net.cpp:150] Setting up conv7
I0308 13:22:07.658862 16293 net.cpp:157] Top shape: 8 4096 2 2 (131072)
I0308 13:22:07.658869 16293 net.cpp:165] Memory required for data: 174598240
I0308 13:22:07.658884 16293 layer_factory.hpp:76] Creating layer relu7
I0308 13:22:07.658905 16293 net.cpp:106] Creating Layer relu7
I0308 13:22:07.658911 16293 net.cpp:454] relu7 <- conv7
I0308 13:22:07.658922 16293 net.cpp:397] relu7 -> conv7 (in-place)
I0308 13:22:07.659375 16293 net.cpp:150] Setting up relu7
I0308 13:22:07.659404 16293 net.cpp:157] Top shape: 8 4096 2 2 (131072)
I0308 13:22:07.659410 16293 net.cpp:165] Memory required for data: 175122528
I0308 13:22:07.659416 16293 layer_factory.hpp:76] Creating layer drop7
I0308 13:22:07.659426 16293 net.cpp:106] Creating Layer drop7
I0308 13:22:07.659432 16293 net.cpp:454] drop7 <- conv7
I0308 13:22:07.659443 16293 net.cpp:397] drop7 -> conv7 (in-place)
I0308 13:22:07.659482 16293 net.cpp:150] Setting up drop7
I0308 13:22:07.659493 16293 net.cpp:157] Top shape: 8 4096 2 2 (131072)
I0308 13:22:07.659498 16293 net.cpp:165] Memory required for data: 175646816
I0308 13:22:07.659503 16293 layer_factory.hpp:76] Creating layer conv8
I0308 13:22:07.659523 16293 net.cpp:106] Creating Layer conv8
I0308 13:22:07.659531 16293 net.cpp:454] conv8 <- conv7
I0308 13:22:07.659539 16293 net.cpp:411] conv8 -> conv8
I0308 13:22:07.660948 16293 cudnn_conv_layer.cpp:198] Reallocating workspace storage: 1572864
I0308 13:22:07.661211 16293 net.cpp:150] Setting up conv8
I0308 13:22:07.661243 16293 net.cpp:157] Top shape: 8 3 2 2 (96)
I0308 13:22:07.661250 16293 net.cpp:165] Memory required for data: 175647200
I0308 13:22:07.661260 16293 layer_factory.hpp:76] Creating layer pool6
I0308 13:22:07.661272 16293 net.cpp:106] Creating Layer pool6
I0308 13:22:07.661278 16293 net.cpp:454] pool6 <- conv8
I0308 13:22:07.661285 16293 net.cpp:411] pool6 -> pool6
I0308 13:22:07.661532 16293 net.cpp:150] Setting up pool6
I0308 13:22:07.661559 16293 net.cpp:157] Top shape: 8 3 1 1 (24)
I0308 13:22:07.661566 16293 net.cpp:165] Memory required for data: 175647296
I0308 13:22:07.661571 16293 layer_factory.hpp:76] Creating layer pool6_pool6_0_split
I0308 13:22:07.661586 16293 net.cpp:106] Creating Layer pool6_pool6_0_split
I0308 13:22:07.661592 16293 net.cpp:454] pool6_pool6_0_split <- pool6
I0308 13:22:07.661599 16293 net.cpp:411] pool6_pool6_0_split -> pool6_pool6_0_split_0
I0308 13:22:07.661608 16293 net.cpp:411] pool6_pool6_0_split -> pool6_pool6_0_split_1
I0308 13:22:07.661666 16293 net.cpp:150] Setting up pool6_pool6_0_split
I0308 13:22:07.661679 16293 net.cpp:157] Top shape: 8 3 1 1 (24)
I0308 13:22:07.661685 16293 net.cpp:157] Top shape: 8 3 1 1 (24)
I0308 13:22:07.661690 16293 net.cpp:165] Memory required for data: 175647488
I0308 13:22:07.661695 16293 layer_factory.hpp:76] Creating layer loss
I0308 13:22:07.661705 16293 net.cpp:106] Creating Layer loss
I0308 13:22:07.661712 16293 net.cpp:454] loss <- pool6_pool6_0_split_0
I0308 13:22:07.661720 16293 net.cpp:454] loss <- label_data_1_split_0
I0308 13:22:07.661726 16293 net.cpp:411] loss -> loss
…
