…
I0311 04:08:02.139888 28079 net.cpp:322] The NetState phase (0) differed from the phase (1) specified by a rule in layer data
I0311 04:08:02.140408 28079 net.cpp:49] Initializing net from parameters: 
name: "VGG_CNN_F"
state {
  phase: TRAIN
}
layer {
  name: "data"
  type: "Data"
  top: "data"
  top: "label"
  include {
    phase: TRAIN
  }
  transform_param {
    mirror: true
    mean_value: 126.348
    mean_value: 122.543
    mean_value: 114.744
  }
  data_param {
    source: "/cvgl/u/rsluo/daytime/training/training_data_shuffled.lmdb"
    batch_size: 64
    backend: LMDB
  }
}
layer {
  name: "conv1"
  type: "Convolution"
  bottom: "data"
  top: "conv1"
  convolution_param {
    num_output: 64
    kernel_size: 11
    stride: 4
    weight_filler {
      type: "xavier"
    }
    bias_filler {
      type: "constant"
      value: 0.1
    }
  }
}
layer {
  name: "relu1"
  type: "ReLU"
  bottom: "conv1"
  top: "conv1"
}
layer {
  name: "norm1"
  type: "LRN"
  bottom: "conv1"
  top: "norm1"
  lrn_param {
    local_size: 5
    alpha: 0.0005
    beta: 0.75
    k: 2
  }
}
layer {
  name: "pool1"
  type: "Pooling"
  bottom: "norm1"
  top: "pool1"
  pooling_param {
    pool: MAX
    kernel_size: 3
    stride: 2
  }
}
layer {
  name: "conv2"
  type: "Convolution"
  bottom: "pool1"
  top: "conv2"
  convolution_param {
    num_output: 256
    pad: 2
    kernel_size: 5
    weight_filler {
      type: "xavier"
    }
    bias_filler {
      type: "constant"
      value: 0.1
    }
  }
}
layer {
  name: "relu2"
  type: "ReLU"
  bottom: "conv2"
  top: "conv2"
}
layer {
  name: "norm2"
  type: "LRN"
  bottom: "conv2"
  top: "norm2"
  lrn_param {
    local_size: 5
    alpha: 0.0005
    beta: 0.75
    k: 2
  }
}
layer {
  name: "pool2"
  type: "Pooling"
  bottom: "norm2"
  top: "pool2"
  pooling_param {
    pool: MAX
    kernel_size: 3
    stride: 2
  }
}
layer {
  name: "conv3"
  type: "Convolution"
  bottom: "pool2"
  top: "conv3"
  convolution_param {
    num_output: 256
    pad: 1
    kernel_size: 3
    weight_filler {
      type: "xavier"
    }
    bias_filler {
      type: "constant"
      value: 0.1
    }
  }
}
layer {
  name: "relu3"
  type: "ReLU"
  bottom: "conv3"
  top: "conv3"
}
layer {
  name: "conv4"
  type: "Convolution"
  bottom: "conv3"
  top: "conv4"
  convolution_param {
    num_output: 256
    pad: 1
    kernel_size: 3
    weight_filler {
      type: "xavier"
    }
    bias_filler {
      type: "constant"
      value: 0.1
    }
  }
}
layer {
  name: "relu4"
  type: "ReLU"
  bottom: "conv4"
  top: "conv4"
}
layer {
  name: "conv5"
  type: "Convolution"
  bottom: "conv4"
  top: "conv5"
  convolution_param {
    num_output: 256
    pad: 1
    kernel_size: 3
    weight_filler {
      type: "xavier"
    }
    bias_filler {
      type: "constant"
      value: 0.1
    }
  }
}
layer {
  name: "relu5"
  type: "ReLU"
  bottom: "conv5"
  top: "conv5"
}
layer {
  name: "pool5"
  type: "Pooling"
  bottom: "conv5"
  top: "pool5"
  pooling_param {
    pool: MAX
    kernel_size: 3
    stride: 2
  }
}
layer {
  name: "conv6"
  type: "Convolution"
  bottom: "pool5"
  top: "conv6"
  convolution_param {
    num_output: 4096
    pad: 0
    kernel_size: 6
    stride: 6
    weight_filler {
      type: "xavier"
    }
    bias_filler {
      type: "constant"
      value: 0.1
    }
  }
}
layer {
  name: "relu6"
  type: "ReLU"
  bottom: "conv6"
  top: "conv6"
}
layer {
  name: "drop6"
  type: "Dropout"
  bottom: "conv6"
  top: "conv6"
  dropout_param {
    dropout_ratio: 0.5
  }
}
layer {
  name: "conv7"
  type: "Convolution"
  bottom: "conv6"
  top: "conv7"
  convolution_param {
    num_output: 4096
    pad: 0
    kernel_size: 1
    stride: 1
    weight_filler {
      type: "xavier"
    }
    bias_filler {
      type: "constant"
      value: 0.1
    }
  }
}
layer {
  name: "relu7"
  type: "ReLU"
  bottom: "conv7"
  top: "conv7"
}
layer {
  name: "drop7"
  type: "Dropout"
  bottom: "conv7"
  top: "conv7"
  dropout_param {
    dropout_ratio: 0.5
  }
}
layer {
  name: "conv8"
  type: "Convolution"
  bottom: "conv7"
  top: "conv8"
  convolution_param {
    num_output: 3
    pad: 0
    kernel_size: 1
    stride: 1
    weight_filler {
      type: "xavier"
    }
    bias_filler {
      type: "constant"
      value: 0.1
    }
  }
}
layer {
  name: "pool6"
  type: "Pooling"
  bottom: "conv8"
  top: "pool6"
  pooling_param {
    pool: AVE
    kernel_size: 2
    stride: 1
  }
}
layer {
  name: "loss"
  type: "SoftmaxWithLoss"
  bottom: "pool6"
  bottom: "label"
  top: "loss"
}
layer {
  name: "acc"
  type: "Accuracy"
  bottom: "pool6"
  bottom: "label"
  top: "acc"
  accuracy_param {
    top_k: 1
  }
}
I0311 04:08:02.140868 28079 layer_factory.hpp:76] Creating layer data
I0311 04:08:02.141873 28079 net.cpp:106] Creating Layer data
I0311 04:08:02.141903 28079 net.cpp:411] data -> data
I0311 04:08:02.141955 28079 net.cpp:411] data -> label
I0311 04:08:02.163704 28084 db_lmdb.cpp:38] Opened lmdb /cvgl/u/rsluo/daytime/training/training_data_shuffled.lmdb
I0311 04:08:02.180223 28079 data_layer.cpp:45] output data size: 64,3,400,400
I0311 04:08:02.447932 28079 net.cpp:150] Setting up data
I0311 04:08:02.448005 28079 net.cpp:157] Top shape: 64 3 400 400 (30720000)
I0311 04:08:02.448016 28079 net.cpp:157] Top shape: 64 (64)
I0311 04:08:02.448021 28079 net.cpp:165] Memory required for data: 122880256
I0311 04:08:02.448035 28079 layer_factory.hpp:76] Creating layer label_data_1_split
I0311 04:08:02.448072 28079 net.cpp:106] Creating Layer label_data_1_split
I0311 04:08:02.448086 28079 net.cpp:454] label_data_1_split <- label
I0311 04:08:02.448114 28079 net.cpp:411] label_data_1_split -> label_data_1_split_0
I0311 04:08:02.448160 28079 net.cpp:411] label_data_1_split -> label_data_1_split_1
I0311 04:08:02.448264 28079 net.cpp:150] Setting up label_data_1_split
I0311 04:08:02.448299 28079 net.cpp:157] Top shape: 64 (64)
I0311 04:08:02.448312 28079 net.cpp:157] Top shape: 64 (64)
I0311 04:08:02.448319 28079 net.cpp:165] Memory required for data: 122880768
I0311 04:08:02.448328 28079 layer_factory.hpp:76] Creating layer conv1
I0311 04:08:02.448369 28079 net.cpp:106] Creating Layer conv1
I0311 04:08:02.448380 28079 net.cpp:454] conv1 <- data
I0311 04:08:02.448395 28079 net.cpp:411] conv1 -> conv1
I0311 04:08:02.726392 28079 net.cpp:150] Setting up conv1
I0311 04:08:02.726434 28079 net.cpp:157] Top shape: 64 64 98 98 (39337984)
I0311 04:08:02.726441 28079 net.cpp:165] Memory required for data: 280232704
I0311 04:08:02.726469 28079 layer_factory.hpp:76] Creating layer relu1
I0311 04:08:02.726487 28079 net.cpp:106] Creating Layer relu1
I0311 04:08:02.726497 28079 net.cpp:454] relu1 <- conv1
I0311 04:08:02.726521 28079 net.cpp:397] relu1 -> conv1 (in-place)
I0311 04:08:02.726717 28079 net.cpp:150] Setting up relu1
I0311 04:08:02.726745 28079 net.cpp:157] Top shape: 64 64 98 98 (39337984)
I0311 04:08:02.726752 28079 net.cpp:165] Memory required for data: 437584640
I0311 04:08:02.726758 28079 layer_factory.hpp:76] Creating layer norm1
I0311 04:08:02.726783 28079 net.cpp:106] Creating Layer norm1
I0311 04:08:02.726789 28079 net.cpp:454] norm1 <- conv1
I0311 04:08:02.726801 28079 net.cpp:411] norm1 -> norm1
I0311 04:08:02.727301 28079 net.cpp:150] Setting up norm1
I0311 04:08:02.727322 28079 net.cpp:157] Top shape: 64 64 98 98 (39337984)
I0311 04:08:02.727358 28079 net.cpp:165] Memory required for data: 594936576
I0311 04:08:02.727365 28079 layer_factory.hpp:76] Creating layer pool1
I0311 04:08:02.727375 28079 net.cpp:106] Creating Layer pool1
I0311 04:08:02.727380 28079 net.cpp:454] pool1 <- norm1
I0311 04:08:02.727388 28079 net.cpp:411] pool1 -> pool1
I0311 04:08:02.727686 28079 net.cpp:150] Setting up pool1
I0311 04:08:02.727704 28079 net.cpp:157] Top shape: 64 64 49 49 (9834496)
I0311 04:08:02.727708 28079 net.cpp:165] Memory required for data: 634274560
I0311 04:08:02.727713 28079 layer_factory.hpp:76] Creating layer conv2
I0311 04:08:02.727738 28079 net.cpp:106] Creating Layer conv2
I0311 04:08:02.727744 28079 net.cpp:454] conv2 <- pool1
I0311 04:08:02.727769 28079 net.cpp:411] conv2 -> conv2
I0311 04:08:02.740739 28079 cudnn_conv_layer.cpp:198] Reallocating workspace storage: 19200
I0311 04:08:02.740808 28079 net.cpp:150] Setting up conv2
I0311 04:08:02.740834 28079 net.cpp:157] Top shape: 64 256 49 49 (39337984)
I0311 04:08:02.740841 28079 net.cpp:165] Memory required for data: 791626496
I0311 04:08:02.740861 28079 layer_factory.hpp:76] Creating layer relu2
I0311 04:08:02.740881 28079 net.cpp:106] Creating Layer relu2
I0311 04:08:02.740890 28079 net.cpp:454] relu2 <- conv2
I0311 04:08:02.740898 28079 net.cpp:397] relu2 -> conv2 (in-place)
I0311 04:08:02.741432 28079 net.cpp:150] Setting up relu2
I0311 04:08:02.741451 28079 net.cpp:157] Top shape: 64 256 49 49 (39337984)
I0311 04:08:02.741456 28079 net.cpp:165] Memory required for data: 948978432
I0311 04:08:02.741461 28079 layer_factory.hpp:76] Creating layer norm2
I0311 04:08:02.741478 28079 net.cpp:106] Creating Layer norm2
I0311 04:08:02.741485 28079 net.cpp:454] norm2 <- conv2
I0311 04:08:02.741506 28079 net.cpp:411] norm2 -> norm2
I0311 04:08:02.741778 28079 net.cpp:150] Setting up norm2
I0311 04:08:02.741796 28079 net.cpp:157] Top shape: 64 256 49 49 (39337984)
I0311 04:08:02.741801 28079 net.cpp:165] Memory required for data: 1106330368
I0311 04:08:02.741806 28079 layer_factory.hpp:76] Creating layer pool2
I0311 04:08:02.741819 28079 net.cpp:106] Creating Layer pool2
I0311 04:08:02.741825 28079 net.cpp:454] pool2 <- norm2
I0311 04:08:02.741832 28079 net.cpp:411] pool2 -> pool2
I0311 04:08:02.742331 28079 net.cpp:150] Setting up pool2
I0311 04:08:02.742347 28079 net.cpp:157] Top shape: 64 256 24 24 (9437184)
I0311 04:08:02.742353 28079 net.cpp:165] Memory required for data: 1144079104
I0311 04:08:02.742358 28079 layer_factory.hpp:76] Creating layer conv3
I0311 04:08:02.742374 28079 net.cpp:106] Creating Layer conv3
I0311 04:08:02.742379 28079 net.cpp:454] conv3 <- pool2
I0311 04:08:02.742401 28079 net.cpp:411] conv3 -> conv3
I0311 04:08:02.750825 28079 cudnn_conv_layer.cpp:198] Reallocating workspace storage: 27648
I0311 04:08:02.750860 28079 net.cpp:150] Setting up conv3
I0311 04:08:02.750876 28079 net.cpp:157] Top shape: 64 256 24 24 (9437184)
I0311 04:08:02.750882 28079 net.cpp:165] Memory required for data: 1181827840
I0311 04:08:02.750911 28079 layer_factory.hpp:76] Creating layer relu3
I0311 04:08:02.750922 28079 net.cpp:106] Creating Layer relu3
I0311 04:08:02.750928 28079 net.cpp:454] relu3 <- conv3
I0311 04:08:02.750936 28079 net.cpp:397] relu3 -> conv3 (in-place)
I0311 04:08:02.751173 28079 net.cpp:150] Setting up relu3
I0311 04:08:02.751191 28079 net.cpp:157] Top shape: 64 256 24 24 (9437184)
I0311 04:08:02.751197 28079 net.cpp:165] Memory required for data: 1219576576
I0311 04:08:02.751204 28079 layer_factory.hpp:76] Creating layer conv4
I0311 04:08:02.751214 28079 net.cpp:106] Creating Layer conv4
I0311 04:08:02.751219 28079 net.cpp:454] conv4 <- conv3
I0311 04:08:02.751245 28079 net.cpp:411] conv4 -> conv4
I0311 04:08:02.758766 28079 cudnn_conv_layer.cpp:198] Reallocating workspace storage: 27648
I0311 04:08:02.758808 28079 net.cpp:150] Setting up conv4
I0311 04:08:02.758819 28079 net.cpp:157] Top shape: 64 256 24 24 (9437184)
I0311 04:08:02.758826 28079 net.cpp:165] Memory required for data: 1257325312
I0311 04:08:02.758849 28079 layer_factory.hpp:76] Creating layer relu4
I0311 04:08:02.758898 28079 net.cpp:106] Creating Layer relu4
I0311 04:08:02.758911 28079 net.cpp:454] relu4 <- conv4
I0311 04:08:02.758920 28079 net.cpp:397] relu4 -> conv4 (in-place)
I0311 04:08:02.759163 28079 net.cpp:150] Setting up relu4
I0311 04:08:02.759179 28079 net.cpp:157] Top shape: 64 256 24 24 (9437184)
I0311 04:08:02.759186 28079 net.cpp:165] Memory required for data: 1295074048
I0311 04:08:02.759191 28079 layer_factory.hpp:76] Creating layer conv5
I0311 04:08:02.759219 28079 net.cpp:106] Creating Layer conv5
I0311 04:08:02.759227 28079 net.cpp:454] conv5 <- conv4
I0311 04:08:02.759243 28079 net.cpp:411] conv5 -> conv5
I0311 04:08:02.766645 28079 cudnn_conv_layer.cpp:198] Reallocating workspace storage: 27648
I0311 04:08:02.766681 28079 net.cpp:150] Setting up conv5
I0311 04:08:02.766693 28079 net.cpp:157] Top shape: 64 256 24 24 (9437184)
I0311 04:08:02.766698 28079 net.cpp:165] Memory required for data: 1332822784
I0311 04:08:02.766727 28079 layer_factory.hpp:76] Creating layer relu5
I0311 04:08:02.766738 28079 net.cpp:106] Creating Layer relu5
I0311 04:08:02.766744 28079 net.cpp:454] relu5 <- conv5
I0311 04:08:02.766755 28079 net.cpp:397] relu5 -> conv5 (in-place)
I0311 04:08:02.767221 28079 net.cpp:150] Setting up relu5
I0311 04:08:02.767240 28079 net.cpp:157] Top shape: 64 256 24 24 (9437184)
I0311 04:08:02.767244 28079 net.cpp:165] Memory required for data: 1370571520
I0311 04:08:02.767251 28079 layer_factory.hpp:76] Creating layer pool5
I0311 04:08:02.767263 28079 net.cpp:106] Creating Layer pool5
I0311 04:08:02.767268 28079 net.cpp:454] pool5 <- conv5
I0311 04:08:02.767292 28079 net.cpp:411] pool5 -> pool5
I0311 04:08:02.767560 28079 net.cpp:150] Setting up pool5
I0311 04:08:02.767576 28079 net.cpp:157] Top shape: 64 256 12 12 (2359296)
I0311 04:08:02.767581 28079 net.cpp:165] Memory required for data: 1380008704
I0311 04:08:02.767586 28079 layer_factory.hpp:76] Creating layer conv6
I0311 04:08:02.767597 28079 net.cpp:106] Creating Layer conv6
I0311 04:08:02.767602 28079 net.cpp:454] conv6 <- pool5
I0311 04:08:02.767627 28079 net.cpp:411] conv6 -> conv6
I0311 04:08:03.173768 28079 cudnn_conv_layer.cpp:198] Reallocating workspace storage: 110592
I0311 04:08:03.174096 28079 net.cpp:150] Setting up conv6
I0311 04:08:03.174141 28079 net.cpp:157] Top shape: 64 4096 2 2 (1048576)
I0311 04:08:03.174149 28079 net.cpp:165] Memory required for data: 1384203008
I0311 04:08:03.174176 28079 layer_factory.hpp:76] Creating layer relu6
I0311 04:08:03.174204 28079 net.cpp:106] Creating Layer relu6
I0311 04:08:03.174218 28079 net.cpp:454] relu6 <- conv6
I0311 04:08:03.174229 28079 net.cpp:397] relu6 -> conv6 (in-place)
I0311 04:08:03.176043 28079 net.cpp:150] Setting up relu6
I0311 04:08:03.176064 28079 net.cpp:157] Top shape: 64 4096 2 2 (1048576)
I0311 04:08:03.176070 28079 net.cpp:165] Memory required for data: 1388397312
I0311 04:08:03.176076 28079 layer_factory.hpp:76] Creating layer drop6
I0311 04:08:03.176111 28079 net.cpp:106] Creating Layer drop6
I0311 04:08:03.176120 28079 net.cpp:454] drop6 <- conv6
I0311 04:08:03.176127 28079 net.cpp:397] drop6 -> conv6 (in-place)
I0311 04:08:03.176209 28079 net.cpp:150] Setting up drop6
I0311 04:08:03.176223 28079 net.cpp:157] Top shape: 64 4096 2 2 (1048576)
I0311 04:08:03.176229 28079 net.cpp:165] Memory required for data: 1392591616
I0311 04:08:03.176234 28079 layer_factory.hpp:76] Creating layer conv7
I0311 04:08:03.176261 28079 net.cpp:106] Creating Layer conv7
I0311 04:08:03.176267 28079 net.cpp:454] conv7 <- conv6
I0311 04:08:03.176290 28079 net.cpp:411] conv7 -> conv7
I0311 04:08:03.341315 28079 cudnn_conv_layer.cpp:198] Reallocating workspace storage: 12582912
I0311 04:08:03.341622 28079 net.cpp:150] Setting up conv7
I0311 04:08:03.341660 28079 net.cpp:157] Top shape: 64 4096 2 2 (1048576)
I0311 04:08:03.341667 28079 net.cpp:165] Memory required for data: 1396785920
I0311 04:08:03.341684 28079 layer_factory.hpp:76] Creating layer relu7
I0311 04:08:03.341706 28079 net.cpp:106] Creating Layer relu7
I0311 04:08:03.341713 28079 net.cpp:454] relu7 <- conv7
I0311 04:08:03.341789 28079 net.cpp:397] relu7 -> conv7 (in-place)
I0311 04:08:03.342227 28079 net.cpp:150] Setting up relu7
I0311 04:08:03.342258 28079 net.cpp:157] Top shape: 64 4096 2 2 (1048576)
I0311 04:08:03.342265 28079 net.cpp:165] Memory required for data: 1400980224
I0311 04:08:03.342291 28079 layer_factory.hpp:76] Creating layer drop7
I0311 04:08:03.342304 28079 net.cpp:106] Creating Layer drop7
I0311 04:08:03.342309 28079 net.cpp:454] drop7 <- conv7
I0311 04:08:03.342317 28079 net.cpp:397] drop7 -> conv7 (in-place)
I0311 04:08:03.342358 28079 net.cpp:150] Setting up drop7
I0311 04:08:03.342370 28079 net.cpp:157] Top shape: 64 4096 2 2 (1048576)
I0311 04:08:03.342375 28079 net.cpp:165] Memory required for data: 1405174528
I0311 04:08:03.342380 28079 layer_factory.hpp:76] Creating layer conv8
I0311 04:08:03.342401 28079 net.cpp:106] Creating Layer conv8
I0311 04:08:03.342408 28079 net.cpp:454] conv8 <- conv7
I0311 04:08:03.342419 28079 net.cpp:411] conv8 -> conv8
I0311 04:08:03.343747 28079 cudnn_conv_layer.cpp:198] Reallocating workspace storage: 12582912
I0311 04:08:03.344007 28079 net.cpp:150] Setting up conv8
I0311 04:08:03.344043 28079 net.cpp:157] Top shape: 64 3 2 2 (768)
I0311 04:08:03.344049 28079 net.cpp:165] Memory required for data: 1405177600
I0311 04:08:03.344060 28079 layer_factory.hpp:76] Creating layer pool6
I0311 04:08:03.344074 28079 net.cpp:106] Creating Layer pool6
I0311 04:08:03.344079 28079 net.cpp:454] pool6 <- conv8
I0311 04:08:03.344090 28079 net.cpp:411] pool6 -> pool6
I0311 04:08:03.344316 28079 net.cpp:150] Setting up pool6
I0311 04:08:03.344342 28079 net.cpp:157] Top shape: 64 3 1 1 (192)
I0311 04:08:03.344348 28079 net.cpp:165] Memory required for data: 1405178368
I0311 04:08:03.344353 28079 layer_factory.hpp:76] Creating layer pool6_pool6_0_split
I0311 04:08:03.344367 28079 net.cpp:106] Creating Layer pool6_pool6_0_split
I0311 04:08:03.344372 28079 net.cpp:454] pool6_pool6_0_split <- pool6
I0311 04:08:03.344383 28079 net.cpp:411] pool6_pool6_0_split -> pool6_pool6_0_split_0
I0311 04:08:03.344393 28079 net.cpp:411] pool6_pool6_0_split -> pool6_pool6_0_split_1
I0311 04:08:03.344441 28079 net.cpp:150] Setting up pool6_pool6_0_split
I0311 04:08:03.344455 28079 net.cpp:157] Top shape: 64 3 1 1 (192)
I0311 04:08:03.344462 28079 net.cpp:157] Top shape: 64 3 1 1 (192)
I0311 04:08:03.344466 28079 net.cpp:165] Memory required for data: 1405179904
I0311 04:08:03.344472 28079 layer_factory.hpp:76] Creating layer loss
I0311 04:08:03.344488 28079 net.cpp:106] Creating Layer loss
I0311 04:08:03.344493 28079 net.cpp:454] loss <- pool6_pool6_0_split_0
I0311 04:08:03.344501 28079 net.cpp:454] loss <- label_data_1_split_0
I0311 04:08:03.344507 28079 net.cpp:411] loss -> loss
…
I0311 04:08:03.347373 28079 net.cpp:322] The NetState phase (1) differed from the phase (0) specified by a rule in layer data
I0311 04:08:03.347667 28079 net.cpp:49] Initializing net from parameters: 
name: "VGG_CNN_F"
state {
  phase: TEST
}
layer {
  name: "data"
  type: "Data"
  top: "data"
  top: "label"
  include {
    phase: TEST
  }
  transform_param {
    mirror: false
    mean_value: 126.348
    mean_value: 122.543
    mean_value: 114.744
  }
  data_param {
    source: "/cvgl/u/rsluo/daytime/test/test_data_shuffled.lmdb"
    batch_size: 8
    backend: LMDB
  }
}
layer {
  name: "conv1"
  type: "Convolution"
  bottom: "data"
  top: "conv1"
  convolution_param {
    num_output: 64
    kernel_size: 11
    stride: 4
    weight_filler {
      type: "xavier"
    }
    bias_filler {
      type: "constant"
      value: 0.1
    }
  }
}
layer {
  name: "relu1"
  type: "ReLU"
  bottom: "conv1"
  top: "conv1"
}
layer {
  name: "norm1"
  type: "LRN"
  bottom: "conv1"
  top: "norm1"
  lrn_param {
    local_size: 5
    alpha: 0.0005
    beta: 0.75
    k: 2
  }
}
layer {
  name: "pool1"
  type: "Pooling"
  bottom: "norm1"
  top: "pool1"
  pooling_param {
    pool: MAX
    kernel_size: 3
    stride: 2
  }
}
layer {
  name: "conv2"
  type: "Convolution"
  bottom: "pool1"
  top: "conv2"
  convolution_param {
    num_output: 256
    pad: 2
    kernel_size: 5
    weight_filler {
      type: "xavier"
    }
    bias_filler {
      type: "constant"
      value: 0.1
    }
  }
}
layer {
  name: "relu2"
  type: "ReLU"
  bottom: "conv2"
  top: "conv2"
}
layer {
  name: "norm2"
  type: "LRN"
  bottom: "conv2"
  top: "norm2"
  lrn_param {
    local_size: 5
    alpha: 0.0005
    beta: 0.75
    k: 2
  }
}
layer {
  name: "pool2"
  type: "Pooling"
  bottom: "norm2"
  top: "pool2"
  pooling_param {
    pool: MAX
    kernel_size: 3
    stride: 2
  }
}
layer {
  name: "conv3"
  type: "Convolution"
  bottom: "pool2"
  top: "conv3"
  convolution_param {
    num_output: 256
    pad: 1
    kernel_size: 3
    weight_filler {
      type: "xavier"
    }
    bias_filler {
      type: "constant"
      value: 0.1
    }
  }
}
layer {
  name: "relu3"
  type: "ReLU"
  bottom: "conv3"
  top: "conv3"
}
layer {
  name: "conv4"
  type: "Convolution"
  bottom: "conv3"
  top: "conv4"
  convolution_param {
    num_output: 256
    pad: 1
    kernel_size: 3
    weight_filler {
      type: "xavier"
    }
    bias_filler {
      type: "constant"
      value: 0.1
    }
  }
}
layer {
  name: "relu4"
  type: "ReLU"
  bottom: "conv4"
  top: "conv4"
}
layer {
  name: "conv5"
  type: "Convolution"
  bottom: "conv4"
  top: "conv5"
  convolution_param {
    num_output: 256
    pad: 1
    kernel_size: 3
    weight_filler {
      type: "xavier"
    }
    bias_filler {
      type: "constant"
      value: 0.1
    }
  }
}
layer {
  name: "relu5"
  type: "ReLU"
  bottom: "conv5"
  top: "conv5"
}
layer {
  name: "pool5"
  type: "Pooling"
  bottom: "conv5"
  top: "pool5"
  pooling_param {
    pool: MAX
    kernel_size: 3
    stride: 2
  }
}
layer {
  name: "conv6"
  type: "Convolution"
  bottom: "pool5"
  top: "conv6"
  convolution_param {
    num_output: 4096
    pad: 0
    kernel_size: 6
    stride: 6
    weight_filler {
      type: "xavier"
    }
    bias_filler {
      type: "constant"
      value: 0.1
    }
  }
}
layer {
  name: "relu6"
  type: "ReLU"
  bottom: "conv6"
  top: "conv6"
}
layer {
  name: "drop6"
  type: "Dropout"
  bottom: "conv6"
  top: "conv6"
  dropout_param {
    dropout_ratio: 0.5
  }
}
layer {
  name: "conv7"
  type: "Convolution"
  bottom: "conv6"
  top: "conv7"
  convolution_param {
    num_output: 4096
    pad: 0
    kernel_size: 1
    stride: 1
    weight_filler {
      type: "xavier"
    }
    bias_filler {
      type: "constant"
      value: 0.1
    }
  }
}
layer {
  name: "relu7"
  type: "ReLU"
  bottom: "conv7"
  top: "conv7"
}
layer {
  name: "drop7"
  type: "Dropout"
  bottom: "conv7"
  top: "conv7"
  dropout_param {
    dropout_ratio: 0.5
  }
}
layer {
  name: "conv8"
  type: "Convolution"
  bottom: "conv7"
  top: "conv8"
  convolution_param {
    num_output: 3
    pad: 0
    kernel_size: 1
    stride: 1
    weight_filler {
      type: "xavier"
    }
    bias_filler {
      type: "constant"
      value: 0.1
    }
  }
}
layer {
  name: "pool6"
  type: "Pooling"
  bottom: "conv8"
  top: "pool6"
  pooling_param {
    pool: AVE
    kernel_size: 2
    stride: 1
  }
}
layer {
  name: "loss"
  type: "SoftmaxWithLoss"
  bottom: "pool6"
  bottom: "label"
  top: "loss"
}
layer {
  name: "acc"
  type: "Accuracy"
  bottom: "pool6"
  bottom: "label"
  top: "acc"
  accuracy_param {
    top_k: 1
  }
}
I0311 04:08:03.347870 28079 layer_factory.hpp:76] Creating layer data
I0311 04:08:03.347985 28079 net.cpp:106] Creating Layer data
I0311 04:08:03.347998 28079 net.cpp:411] data -> data
I0311 04:08:03.348013 28079 net.cpp:411] data -> label
I0311 04:08:03.392971 28086 db_lmdb.cpp:38] Opened lmdb /cvgl/u/rsluo/daytime/test/test_data_shuffled.lmdb
I0311 04:08:03.394192 28079 data_layer.cpp:45] output data size: 8,3,400,400
I0311 04:08:03.437088 28079 net.cpp:150] Setting up data
I0311 04:08:03.437141 28079 net.cpp:157] Top shape: 8 3 400 400 (3840000)
I0311 04:08:03.437152 28079 net.cpp:157] Top shape: 8 (8)
I0311 04:08:03.437157 28079 net.cpp:165] Memory required for data: 15360032
I0311 04:08:03.437167 28079 layer_factory.hpp:76] Creating layer label_data_1_split
I0311 04:08:03.437191 28079 net.cpp:106] Creating Layer label_data_1_split
I0311 04:08:03.437199 28079 net.cpp:454] label_data_1_split <- label
I0311 04:08:03.437211 28079 net.cpp:411] label_data_1_split -> label_data_1_split_0
I0311 04:08:03.437240 28079 net.cpp:411] label_data_1_split -> label_data_1_split_1
I0311 04:08:03.437407 28079 net.cpp:150] Setting up label_data_1_split
I0311 04:08:03.437433 28079 net.cpp:157] Top shape: 8 (8)
I0311 04:08:03.437441 28079 net.cpp:157] Top shape: 8 (8)
I0311 04:08:03.437476 28079 net.cpp:165] Memory required for data: 15360096
I0311 04:08:03.437484 28079 layer_factory.hpp:76] Creating layer conv1
I0311 04:08:03.437501 28079 net.cpp:106] Creating Layer conv1
I0311 04:08:03.437508 28079 net.cpp:454] conv1 <- data
I0311 04:08:03.437520 28079 net.cpp:411] conv1 -> conv1
I0311 04:08:03.441628 28079 net.cpp:150] Setting up conv1
I0311 04:08:03.441653 28079 net.cpp:157] Top shape: 8 64 98 98 (4917248)
I0311 04:08:03.441658 28079 net.cpp:165] Memory required for data: 35029088
I0311 04:08:03.441675 28079 layer_factory.hpp:76] Creating layer relu1
I0311 04:08:03.441685 28079 net.cpp:106] Creating Layer relu1
I0311 04:08:03.441690 28079 net.cpp:454] relu1 <- conv1
I0311 04:08:03.441701 28079 net.cpp:397] relu1 -> conv1 (in-place)
I0311 04:08:03.441908 28079 net.cpp:150] Setting up relu1
I0311 04:08:03.441925 28079 net.cpp:157] Top shape: 8 64 98 98 (4917248)
I0311 04:08:03.441929 28079 net.cpp:165] Memory required for data: 54698080
I0311 04:08:03.441936 28079 layer_factory.hpp:76] Creating layer norm1
I0311 04:08:03.441951 28079 net.cpp:106] Creating Layer norm1
I0311 04:08:03.441957 28079 net.cpp:454] norm1 <- conv1
I0311 04:08:03.441965 28079 net.cpp:411] norm1 -> norm1
I0311 04:08:03.442432 28079 net.cpp:150] Setting up norm1
I0311 04:08:03.442450 28079 net.cpp:157] Top shape: 8 64 98 98 (4917248)
I0311 04:08:03.442456 28079 net.cpp:165] Memory required for data: 74367072
I0311 04:08:03.442461 28079 layer_factory.hpp:76] Creating layer pool1
I0311 04:08:03.442469 28079 net.cpp:106] Creating Layer pool1
I0311 04:08:03.442474 28079 net.cpp:454] pool1 <- norm1
I0311 04:08:03.442486 28079 net.cpp:411] pool1 -> pool1
I0311 04:08:03.442718 28079 net.cpp:150] Setting up pool1
I0311 04:08:03.442734 28079 net.cpp:157] Top shape: 8 64 49 49 (1229312)
I0311 04:08:03.442739 28079 net.cpp:165] Memory required for data: 79284320
I0311 04:08:03.442745 28079 layer_factory.hpp:76] Creating layer conv2
I0311 04:08:03.442760 28079 net.cpp:106] Creating Layer conv2
I0311 04:08:03.442766 28079 net.cpp:454] conv2 <- pool1
I0311 04:08:03.442775 28079 net.cpp:411] conv2 -> conv2
I0311 04:08:03.448282 28079 cudnn_conv_layer.cpp:198] Reallocating workspace storage: 19200
I0311 04:08:03.448317 28079 net.cpp:150] Setting up conv2
I0311 04:08:03.448328 28079 net.cpp:157] Top shape: 8 256 49 49 (4917248)
I0311 04:08:03.448333 28079 net.cpp:165] Memory required for data: 98953312
I0311 04:08:03.448353 28079 layer_factory.hpp:76] Creating layer relu2
I0311 04:08:03.448369 28079 net.cpp:106] Creating Layer relu2
I0311 04:08:03.448375 28079 net.cpp:454] relu2 <- conv2
I0311 04:08:03.448384 28079 net.cpp:397] relu2 -> conv2 (in-place)
I0311 04:08:03.448813 28079 net.cpp:150] Setting up relu2
I0311 04:08:03.448832 28079 net.cpp:157] Top shape: 8 256 49 49 (4917248)
I0311 04:08:03.448838 28079 net.cpp:165] Memory required for data: 118622304
I0311 04:08:03.448844 28079 layer_factory.hpp:76] Creating layer norm2
I0311 04:08:03.448856 28079 net.cpp:106] Creating Layer norm2
I0311 04:08:03.448863 28079 net.cpp:454] norm2 <- conv2
I0311 04:08:03.448873 28079 net.cpp:411] norm2 -> norm2
I0311 04:08:03.449100 28079 net.cpp:150] Setting up norm2
I0311 04:08:03.449116 28079 net.cpp:157] Top shape: 8 256 49 49 (4917248)
I0311 04:08:03.449122 28079 net.cpp:165] Memory required for data: 138291296
I0311 04:08:03.449127 28079 layer_factory.hpp:76] Creating layer pool2
I0311 04:08:03.449136 28079 net.cpp:106] Creating Layer pool2
I0311 04:08:03.449142 28079 net.cpp:454] pool2 <- norm2
I0311 04:08:03.449152 28079 net.cpp:411] pool2 -> pool2
I0311 04:08:03.449620 28079 net.cpp:150] Setting up pool2
I0311 04:08:03.449636 28079 net.cpp:157] Top shape: 8 256 24 24 (1179648)
I0311 04:08:03.449642 28079 net.cpp:165] Memory required for data: 143009888
I0311 04:08:03.449648 28079 layer_factory.hpp:76] Creating layer conv3
I0311 04:08:03.449662 28079 net.cpp:106] Creating Layer conv3
I0311 04:08:03.449668 28079 net.cpp:454] conv3 <- pool2
I0311 04:08:03.449679 28079 net.cpp:411] conv3 -> conv3
I0311 04:08:03.456722 28079 net.cpp:150] Setting up conv3
I0311 04:08:03.456750 28079 net.cpp:157] Top shape: 8 256 24 24 (1179648)
I0311 04:08:03.456756 28079 net.cpp:165] Memory required for data: 147728480
I0311 04:08:03.456773 28079 layer_factory.hpp:76] Creating layer relu3
I0311 04:08:03.456786 28079 net.cpp:106] Creating Layer relu3
I0311 04:08:03.456794 28079 net.cpp:454] relu3 <- conv3
I0311 04:08:03.456804 28079 net.cpp:397] relu3 -> conv3 (in-place)
I0311 04:08:03.457216 28079 net.cpp:150] Setting up relu3
I0311 04:08:03.457233 28079 net.cpp:157] Top shape: 8 256 24 24 (1179648)
I0311 04:08:03.457238 28079 net.cpp:165] Memory required for data: 152447072
I0311 04:08:03.457244 28079 layer_factory.hpp:76] Creating layer conv4
I0311 04:08:03.457257 28079 net.cpp:106] Creating Layer conv4
I0311 04:08:03.457262 28079 net.cpp:454] conv4 <- conv3
I0311 04:08:03.457273 28079 net.cpp:411] conv4 -> conv4
I0311 04:08:03.465744 28079 net.cpp:150] Setting up conv4
I0311 04:08:03.465770 28079 net.cpp:157] Top shape: 8 256 24 24 (1179648)
I0311 04:08:03.465777 28079 net.cpp:165] Memory required for data: 157165664
I0311 04:08:03.465790 28079 layer_factory.hpp:76] Creating layer relu4
I0311 04:08:03.465801 28079 net.cpp:106] Creating Layer relu4
I0311 04:08:03.465806 28079 net.cpp:454] relu4 <- conv4
I0311 04:08:03.465818 28079 net.cpp:397] relu4 -> conv4 (in-place)
I0311 04:08:03.466020 28079 net.cpp:150] Setting up relu4
I0311 04:08:03.466035 28079 net.cpp:157] Top shape: 8 256 24 24 (1179648)
I0311 04:08:03.466042 28079 net.cpp:165] Memory required for data: 161884256
I0311 04:08:03.466047 28079 layer_factory.hpp:76] Creating layer conv5
I0311 04:08:03.466061 28079 net.cpp:106] Creating Layer conv5
I0311 04:08:03.466068 28079 net.cpp:454] conv5 <- conv4
I0311 04:08:03.466076 28079 net.cpp:411] conv5 -> conv5
I0311 04:08:03.473265 28079 net.cpp:150] Setting up conv5
I0311 04:08:03.473294 28079 net.cpp:157] Top shape: 8 256 24 24 (1179648)
I0311 04:08:03.473299 28079 net.cpp:165] Memory required for data: 166602848
I0311 04:08:03.473322 28079 layer_factory.hpp:76] Creating layer relu5
I0311 04:08:03.473335 28079 net.cpp:106] Creating Layer relu5
I0311 04:08:03.473348 28079 net.cpp:454] relu5 <- conv5
I0311 04:08:03.473356 28079 net.cpp:397] relu5 -> conv5 (in-place)
I0311 04:08:03.473767 28079 net.cpp:150] Setting up relu5
I0311 04:08:03.473784 28079 net.cpp:157] Top shape: 8 256 24 24 (1179648)
I0311 04:08:03.473790 28079 net.cpp:165] Memory required for data: 171321440
I0311 04:08:03.473796 28079 layer_factory.hpp:76] Creating layer pool5
I0311 04:08:03.473814 28079 net.cpp:106] Creating Layer pool5
I0311 04:08:03.473819 28079 net.cpp:454] pool5 <- conv5
I0311 04:08:03.473829 28079 net.cpp:411] pool5 -> pool5
I0311 04:08:03.474056 28079 net.cpp:150] Setting up pool5
I0311 04:08:03.474072 28079 net.cpp:157] Top shape: 8 256 12 12 (294912)
I0311 04:08:03.474077 28079 net.cpp:165] Memory required for data: 172501088
I0311 04:08:03.474083 28079 layer_factory.hpp:76] Creating layer conv6
I0311 04:08:03.474098 28079 net.cpp:106] Creating Layer conv6
I0311 04:08:03.474103 28079 net.cpp:454] conv6 <- pool5
I0311 04:08:03.474115 28079 net.cpp:411] conv6 -> conv6
I0311 04:08:03.838459 28079 cudnn_conv_layer.cpp:198] Reallocating workspace storage: 110592
I0311 04:08:03.838536 28079 net.cpp:150] Setting up conv6
I0311 04:08:03.838556 28079 net.cpp:157] Top shape: 8 4096 2 2 (131072)
I0311 04:08:03.838562 28079 net.cpp:165] Memory required for data: 173025376
I0311 04:08:03.838577 28079 layer_factory.hpp:76] Creating layer relu6
I0311 04:08:03.838595 28079 net.cpp:106] Creating Layer relu6
I0311 04:08:03.838603 28079 net.cpp:454] relu6 <- conv6
I0311 04:08:03.838618 28079 net.cpp:397] relu6 -> conv6 (in-place)
I0311 04:08:03.839092 28079 net.cpp:150] Setting up relu6
I0311 04:08:03.839120 28079 net.cpp:157] Top shape: 8 4096 2 2 (131072)
I0311 04:08:03.839126 28079 net.cpp:165] Memory required for data: 173549664
I0311 04:08:03.839133 28079 layer_factory.hpp:76] Creating layer drop6
I0311 04:08:03.839151 28079 net.cpp:106] Creating Layer drop6
I0311 04:08:03.839208 28079 net.cpp:454] drop6 <- conv6
I0311 04:08:03.839217 28079 net.cpp:397] drop6 -> conv6 (in-place)
I0311 04:08:03.839282 28079 net.cpp:150] Setting up drop6
I0311 04:08:03.839294 28079 net.cpp:157] Top shape: 8 4096 2 2 (131072)
I0311 04:08:03.839298 28079 net.cpp:165] Memory required for data: 174073952
I0311 04:08:03.839303 28079 layer_factory.hpp:76] Creating layer conv7
I0311 04:08:03.839320 28079 net.cpp:106] Creating Layer conv7
I0311 04:08:03.839337 28079 net.cpp:454] conv7 <- conv6
I0311 04:08:03.839349 28079 net.cpp:411] conv7 -> conv7
I0311 04:08:03.999152 28079 net.cpp:150] Setting up conv7
I0311 04:08:03.999217 28079 net.cpp:157] Top shape: 8 4096 2 2 (131072)
I0311 04:08:03.999223 28079 net.cpp:165] Memory required for data: 174598240
I0311 04:08:03.999239 28079 layer_factory.hpp:76] Creating layer relu7
I0311 04:08:03.999260 28079 net.cpp:106] Creating Layer relu7
I0311 04:08:03.999269 28079 net.cpp:454] relu7 <- conv7
I0311 04:08:03.999281 28079 net.cpp:397] relu7 -> conv7 (in-place)
I0311 04:08:03.999713 28079 net.cpp:150] Setting up relu7
I0311 04:08:03.999742 28079 net.cpp:157] Top shape: 8 4096 2 2 (131072)
I0311 04:08:03.999747 28079 net.cpp:165] Memory required for data: 175122528
I0311 04:08:03.999752 28079 layer_factory.hpp:76] Creating layer drop7
I0311 04:08:03.999766 28079 net.cpp:106] Creating Layer drop7
I0311 04:08:03.999773 28079 net.cpp:454] drop7 <- conv7
I0311 04:08:03.999779 28079 net.cpp:397] drop7 -> conv7 (in-place)
I0311 04:08:03.999825 28079 net.cpp:150] Setting up drop7
I0311 04:08:03.999837 28079 net.cpp:157] Top shape: 8 4096 2 2 (131072)
I0311 04:08:03.999842 28079 net.cpp:165] Memory required for data: 175646816
I0311 04:08:03.999847 28079 layer_factory.hpp:76] Creating layer conv8
I0311 04:08:03.999863 28079 net.cpp:106] Creating Layer conv8
I0311 04:08:03.999868 28079 net.cpp:454] conv8 <- conv7
I0311 04:08:03.999884 28079 net.cpp:411] conv8 -> conv8
I0311 04:08:04.001271 28079 cudnn_conv_layer.cpp:198] Reallocating workspace storage: 1572864
I0311 04:08:04.001570 28079 net.cpp:150] Setting up conv8
I0311 04:08:04.001603 28079 net.cpp:157] Top shape: 8 3 2 2 (96)
I0311 04:08:04.001610 28079 net.cpp:165] Memory required for data: 175647200
I0311 04:08:04.001621 28079 layer_factory.hpp:76] Creating layer pool6
I0311 04:08:04.001632 28079 net.cpp:106] Creating Layer pool6
I0311 04:08:04.001637 28079 net.cpp:454] pool6 <- conv8
I0311 04:08:04.001646 28079 net.cpp:411] pool6 -> pool6
I0311 04:08:04.001878 28079 net.cpp:150] Setting up pool6
I0311 04:08:04.001904 28079 net.cpp:157] Top shape: 8 3 1 1 (24)
I0311 04:08:04.001909 28079 net.cpp:165] Memory required for data: 175647296
I0311 04:08:04.001915 28079 layer_factory.hpp:76] Creating layer pool6_pool6_0_split
I0311 04:08:04.001927 28079 net.cpp:106] Creating Layer pool6_pool6_0_split
I0311 04:08:04.001934 28079 net.cpp:454] pool6_pool6_0_split <- pool6
I0311 04:08:04.001941 28079 net.cpp:411] pool6_pool6_0_split -> pool6_pool6_0_split_0
I0311 04:08:04.001952 28079 net.cpp:411] pool6_pool6_0_split -> pool6_pool6_0_split_1
I0311 04:08:04.002007 28079 net.cpp:150] Setting up pool6_pool6_0_split
I0311 04:08:04.002032 28079 net.cpp:157] Top shape: 8 3 1 1 (24)
I0311 04:08:04.002038 28079 net.cpp:157] Top shape: 8 3 1 1 (24)
I0311 04:08:04.002043 28079 net.cpp:165] Memory required for data: 175647488
I0311 04:08:04.002048 28079 layer_factory.hpp:76] Creating layer loss
I0311 04:08:04.002060 28079 net.cpp:106] Creating Layer loss
I0311 04:08:04.002065 28079 net.cpp:454] loss <- pool6_pool6_0_split_0
I0311 04:08:04.002071 28079 net.cpp:454] loss <- label_data_1_split_0
I0311 04:08:04.002100 28079 net.cpp:411] loss -> loss
…
