…
I0312 11:06:12.189724 32703 net.cpp:322] The NetState phase (0) differed from the phase (1) specified by a rule in layer data
I0312 11:06:12.190012 32703 net.cpp:49] Initializing net from parameters: 
name: "VGG_CNN_F"
state {
  phase: TRAIN
}
layer {
  name: "data"
  type: "Data"
  top: "data"
  top: "label"
  include {
    phase: TRAIN
  }
  transform_param {
    mirror: true
    mean_value: 126.348
    mean_value: 122.543
    mean_value: 114.744
  }
  data_param {
    source: "/cvgl/u/rsluo/daytime/training/training_data_shuffled.lmdb"
    batch_size: 64
    backend: LMDB
  }
}
layer {
  name: "conv1"
  type: "Convolution"
  bottom: "data"
  top: "conv1"
  convolution_param {
    num_output: 64
    kernel_size: 11
    stride: 4
    weight_filler {
      type: "xavier"
    }
    bias_filler {
      type: "constant"
      value: 0.1
    }
  }
}
layer {
  name: "relu1"
  type: "ReLU"
  bottom: "conv1"
  top: "conv1"
}
layer {
  name: "norm1"
  type: "LRN"
  bottom: "conv1"
  top: "norm1"
  lrn_param {
    local_size: 5
    alpha: 0.0005
    beta: 0.75
    k: 2
  }
}
layer {
  name: "pool1"
  type: "Pooling"
  bottom: "norm1"
  top: "pool1"
  pooling_param {
    pool: MAX
    kernel_size: 3
    stride: 2
  }
}
layer {
  name: "conv2"
  type: "Convolution"
  bottom: "pool1"
  top: "conv2"
  convolution_param {
    num_output: 256
    pad: 2
    kernel_size: 5
    weight_filler {
      type: "xavier"
    }
    bias_filler {
      type: "constant"
      value: 0.1
    }
  }
}
layer {
  name: "relu2"
  type: "ReLU"
  bottom: "conv2"
  top: "conv2"
}
layer {
  name: "norm2"
  type: "LRN"
  bottom: "conv2"
  top: "norm2"
  lrn_param {
    local_size: 5
    alpha: 0.0005
    beta: 0.75
    k: 2
  }
}
layer {
  name: "pool2"
  type: "Pooling"
  bottom: "norm2"
  top: "pool2"
  pooling_param {
    pool: MAX
    kernel_size: 3
    stride: 2
  }
}
layer {
  name: "conv3"
  type: "Convolution"
  bottom: "pool2"
  top: "conv3"
  convolution_param {
    num_output: 256
    pad: 1
    kernel_size: 3
    weight_filler {
      type: "xavier"
    }
    bias_filler {
      type: "constant"
      value: 0.1
    }
  }
}
layer {
  name: "relu3"
  type: "ReLU"
  bottom: "conv3"
  top: "conv3"
}
layer {
  name: "conv4"
  type: "Convolution"
  bottom: "conv3"
  top: "conv4"
  convolution_param {
    num_output: 256
    pad: 1
    kernel_size: 3
    weight_filler {
      type: "xavier"
    }
    bias_filler {
      type: "constant"
      value: 0.1
    }
  }
}
layer {
  name: "relu4"
  type: "ReLU"
  bottom: "conv4"
  top: "conv4"
}
layer {
  name: "conv5"
  type: "Convolution"
  bottom: "conv4"
  top: "conv5"
  convolution_param {
    num_output: 256
    pad: 1
    kernel_size: 3
    weight_filler {
      type: "xavier"
    }
    bias_filler {
      type: "constant"
      value: 0.1
    }
  }
}
layer {
  name: "relu5"
  type: "ReLU"
  bottom: "conv5"
  top: "conv5"
}
layer {
  name: "pool5"
  type: "Pooling"
  bottom: "conv5"
  top: "pool5"
  pooling_param {
    pool: MAX
    kernel_size: 3
    stride: 2
  }
}
layer {
  name: "conv6"
  type: "Convolution"
  bottom: "pool5"
  top: "conv6"
  convolution_param {
    num_output: 4096
    pad: 0
    kernel_size: 6
    stride: 6
    weight_filler {
      type: "xavier"
    }
    bias_filler {
      type: "constant"
      value: 0.1
    }
  }
}
layer {
  name: "relu6"
  type: "ReLU"
  bottom: "conv6"
  top: "conv6"
}
layer {
  name: "drop6"
  type: "Dropout"
  bottom: "conv6"
  top: "conv6"
  dropout_param {
    dropout_ratio: 0.5
  }
}
layer {
  name: "conv7"
  type: "Convolution"
  bottom: "conv6"
  top: "conv7"
  convolution_param {
    num_output: 4096
    pad: 0
    kernel_size: 1
    stride: 1
    weight_filler {
      type: "xavier"
    }
    bias_filler {
      type: "constant"
      value: 0.1
    }
  }
}
layer {
  name: "relu7"
  type: "ReLU"
  bottom: "conv7"
  top: "conv7"
}
layer {
  name: "drop7"
  type: "Dropout"
  bottom: "conv7"
  top: "conv7"
  dropout_param {
    dropout_ratio: 0.5
  }
}
layer {
  name: "conv8"
  type: "Convolution"
  bottom: "conv7"
  top: "conv8"
  convolution_param {
    num_output: 3
    pad: 0
    kernel_size: 1
    stride: 1
    weight_filler {
      type: "xavier"
    }
    bias_filler {
      type: "constant"
      value: 0.1
    }
  }
}
layer {
  name: "pool6"
  type: "Pooling"
  bottom: "conv8"
  top: "pool6"
  pooling_param {
    pool: AVE
    kernel_size: 2
    stride: 1
  }
}
layer {
  name: "loss"
  type: "SoftmaxWithLoss"
  bottom: "pool6"
  bottom: "label"
  top: "loss"
}
layer {
  name: "acc"
  type: "Accuracy"
  bottom: "pool6"
  bottom: "label"
  top: "acc"
  accuracy_param {
    top_k: 1
  }
}
I0312 11:06:12.190263 32703 layer_factory.hpp:76] Creating layer data
I0312 11:06:12.191396 32703 net.cpp:106] Creating Layer data
I0312 11:06:12.191476 32703 net.cpp:411] data -> data
I0312 11:06:12.191567 32703 net.cpp:411] data -> label
I0312 11:06:12.194556 32708 db_lmdb.cpp:38] Opened lmdb /cvgl/u/rsluo/daytime/training/training_data_shuffled.lmdb
I0312 11:06:12.217850 32703 data_layer.cpp:45] output data size: 64,3,400,400
I0312 11:06:12.519076 32703 net.cpp:150] Setting up data
I0312 11:06:12.519193 32703 net.cpp:157] Top shape: 64 3 400 400 (30720000)
I0312 11:06:12.519207 32703 net.cpp:157] Top shape: 64 (64)
I0312 11:06:12.519214 32703 net.cpp:165] Memory required for data: 122880256
I0312 11:06:12.519243 32703 layer_factory.hpp:76] Creating layer label_data_1_split
I0312 11:06:12.519268 32703 net.cpp:106] Creating Layer label_data_1_split
I0312 11:06:12.519279 32703 net.cpp:454] label_data_1_split <- label
I0312 11:06:12.519301 32703 net.cpp:411] label_data_1_split -> label_data_1_split_0
I0312 11:06:12.519318 32703 net.cpp:411] label_data_1_split -> label_data_1_split_1
I0312 11:06:12.519399 32703 net.cpp:150] Setting up label_data_1_split
I0312 11:06:12.519428 32703 net.cpp:157] Top shape: 64 (64)
I0312 11:06:12.519435 32703 net.cpp:157] Top shape: 64 (64)
I0312 11:06:12.519439 32703 net.cpp:165] Memory required for data: 122880768
I0312 11:06:12.519445 32703 layer_factory.hpp:76] Creating layer conv1
I0312 11:06:12.519467 32703 net.cpp:106] Creating Layer conv1
I0312 11:06:12.519474 32703 net.cpp:454] conv1 <- data
I0312 11:06:12.519489 32703 net.cpp:411] conv1 -> conv1
I0312 11:06:12.730283 32703 net.cpp:150] Setting up conv1
I0312 11:06:12.730350 32703 net.cpp:157] Top shape: 64 64 98 98 (39337984)
I0312 11:06:12.730358 32703 net.cpp:165] Memory required for data: 280232704
I0312 11:06:12.730392 32703 layer_factory.hpp:76] Creating layer relu1
I0312 11:06:12.730420 32703 net.cpp:106] Creating Layer relu1
I0312 11:06:12.730429 32703 net.cpp:454] relu1 <- conv1
I0312 11:06:12.730442 32703 net.cpp:397] relu1 -> conv1 (in-place)
I0312 11:06:12.730626 32703 net.cpp:150] Setting up relu1
I0312 11:06:12.730644 32703 net.cpp:157] Top shape: 64 64 98 98 (39337984)
I0312 11:06:12.730650 32703 net.cpp:165] Memory required for data: 437584640
I0312 11:06:12.730656 32703 layer_factory.hpp:76] Creating layer norm1
I0312 11:06:12.730676 32703 net.cpp:106] Creating Layer norm1
I0312 11:06:12.730682 32703 net.cpp:454] norm1 <- conv1
I0312 11:06:12.730691 32703 net.cpp:411] norm1 -> norm1
I0312 11:06:12.731220 32703 net.cpp:150] Setting up norm1
I0312 11:06:12.731245 32703 net.cpp:157] Top shape: 64 64 98 98 (39337984)
I0312 11:06:12.731323 32703 net.cpp:165] Memory required for data: 594936576
I0312 11:06:12.731338 32703 layer_factory.hpp:76] Creating layer pool1
I0312 11:06:12.731356 32703 net.cpp:106] Creating Layer pool1
I0312 11:06:12.731369 32703 net.cpp:454] pool1 <- norm1
I0312 11:06:12.731384 32703 net.cpp:411] pool1 -> pool1
I0312 11:06:12.731645 32703 net.cpp:150] Setting up pool1
I0312 11:06:12.731665 32703 net.cpp:157] Top shape: 64 64 49 49 (9834496)
I0312 11:06:12.731688 32703 net.cpp:165] Memory required for data: 634274560
I0312 11:06:12.731699 32703 layer_factory.hpp:76] Creating layer conv2
I0312 11:06:12.731722 32703 net.cpp:106] Creating Layer conv2
I0312 11:06:12.731739 32703 net.cpp:454] conv2 <- pool1
I0312 11:06:12.731760 32703 net.cpp:411] conv2 -> conv2
I0312 11:06:12.738032 32703 cudnn_conv_layer.cpp:198] Reallocating workspace storage: 19200
I0312 11:06:12.738106 32703 net.cpp:150] Setting up conv2
I0312 11:06:12.738128 32703 net.cpp:157] Top shape: 64 256 49 49 (39337984)
I0312 11:06:12.738139 32703 net.cpp:165] Memory required for data: 791626496
I0312 11:06:12.738169 32703 layer_factory.hpp:76] Creating layer relu2
I0312 11:06:12.738193 32703 net.cpp:106] Creating Layer relu2
I0312 11:06:12.738212 32703 net.cpp:454] relu2 <- conv2
I0312 11:06:12.738230 32703 net.cpp:397] relu2 -> conv2 (in-place)
I0312 11:06:12.738687 32703 net.cpp:150] Setting up relu2
I0312 11:06:12.738708 32703 net.cpp:157] Top shape: 64 256 49 49 (39337984)
I0312 11:06:12.738718 32703 net.cpp:165] Memory required for data: 948978432
I0312 11:06:12.738729 32703 layer_factory.hpp:76] Creating layer norm2
I0312 11:06:12.738756 32703 net.cpp:106] Creating Layer norm2
I0312 11:06:12.738770 32703 net.cpp:454] norm2 <- conv2
I0312 11:06:12.738791 32703 net.cpp:411] norm2 -> norm2
I0312 11:06:12.739054 32703 net.cpp:150] Setting up norm2
I0312 11:06:12.739089 32703 net.cpp:157] Top shape: 64 256 49 49 (39337984)
I0312 11:06:12.739110 32703 net.cpp:165] Memory required for data: 1106330368
I0312 11:06:12.739120 32703 layer_factory.hpp:76] Creating layer pool2
I0312 11:06:12.739135 32703 net.cpp:106] Creating Layer pool2
I0312 11:06:12.739145 32703 net.cpp:454] pool2 <- norm2
I0312 11:06:12.739173 32703 net.cpp:411] pool2 -> pool2
I0312 11:06:12.739647 32703 net.cpp:150] Setting up pool2
I0312 11:06:12.739671 32703 net.cpp:157] Top shape: 64 256 24 24 (9437184)
I0312 11:06:12.739681 32703 net.cpp:165] Memory required for data: 1144079104
I0312 11:06:12.739692 32703 layer_factory.hpp:76] Creating layer conv3
I0312 11:06:12.739712 32703 net.cpp:106] Creating Layer conv3
I0312 11:06:12.739723 32703 net.cpp:454] conv3 <- pool2
I0312 11:06:12.739747 32703 net.cpp:411] conv3 -> conv3
I0312 11:06:12.747630 32703 cudnn_conv_layer.cpp:198] Reallocating workspace storage: 27648
I0312 11:06:12.747686 32703 net.cpp:150] Setting up conv3
I0312 11:06:12.747707 32703 net.cpp:157] Top shape: 64 256 24 24 (9437184)
I0312 11:06:12.747719 32703 net.cpp:165] Memory required for data: 1181827840
I0312 11:06:12.747748 32703 layer_factory.hpp:76] Creating layer relu3
I0312 11:06:12.747773 32703 net.cpp:106] Creating Layer relu3
I0312 11:06:12.747789 32703 net.cpp:454] relu3 <- conv3
I0312 11:06:12.747812 32703 net.cpp:397] relu3 -> conv3 (in-place)
I0312 11:06:12.748037 32703 net.cpp:150] Setting up relu3
I0312 11:06:12.748057 32703 net.cpp:157] Top shape: 64 256 24 24 (9437184)
I0312 11:06:12.748067 32703 net.cpp:165] Memory required for data: 1219576576
I0312 11:06:12.748078 32703 layer_factory.hpp:76] Creating layer conv4
I0312 11:06:12.748106 32703 net.cpp:106] Creating Layer conv4
I0312 11:06:12.748119 32703 net.cpp:454] conv4 <- conv3
I0312 11:06:12.748142 32703 net.cpp:411] conv4 -> conv4
I0312 11:06:12.755322 32703 cudnn_conv_layer.cpp:198] Reallocating workspace storage: 27648
I0312 11:06:12.755373 32703 net.cpp:150] Setting up conv4
I0312 11:06:12.755410 32703 net.cpp:157] Top shape: 64 256 24 24 (9437184)
I0312 11:06:12.755427 32703 net.cpp:165] Memory required for data: 1257325312
I0312 11:06:12.755450 32703 layer_factory.hpp:76] Creating layer relu4
I0312 11:06:12.755523 32703 net.cpp:106] Creating Layer relu4
I0312 11:06:12.755537 32703 net.cpp:454] relu4 <- conv4
I0312 11:06:12.755555 32703 net.cpp:397] relu4 -> conv4 (in-place)
I0312 11:06:12.755784 32703 net.cpp:150] Setting up relu4
I0312 11:06:12.755806 32703 net.cpp:157] Top shape: 64 256 24 24 (9437184)
I0312 11:06:12.755817 32703 net.cpp:165] Memory required for data: 1295074048
I0312 11:06:12.755827 32703 layer_factory.hpp:76] Creating layer conv5
I0312 11:06:12.755847 32703 net.cpp:106] Creating Layer conv5
I0312 11:06:12.755858 32703 net.cpp:454] conv5 <- conv4
I0312 11:06:12.755879 32703 net.cpp:411] conv5 -> conv5
I0312 11:06:12.762994 32703 cudnn_conv_layer.cpp:198] Reallocating workspace storage: 27648
I0312 11:06:12.763041 32703 net.cpp:150] Setting up conv5
I0312 11:06:12.763058 32703 net.cpp:157] Top shape: 64 256 24 24 (9437184)
I0312 11:06:12.763075 32703 net.cpp:165] Memory required for data: 1332822784
I0312 11:06:12.763111 32703 layer_factory.hpp:76] Creating layer relu5
I0312 11:06:12.763135 32703 net.cpp:106] Creating Layer relu5
I0312 11:06:12.763146 32703 net.cpp:454] relu5 <- conv5
I0312 11:06:12.763162 32703 net.cpp:397] relu5 -> conv5 (in-place)
I0312 11:06:12.763608 32703 net.cpp:150] Setting up relu5
I0312 11:06:12.763628 32703 net.cpp:157] Top shape: 64 256 24 24 (9437184)
I0312 11:06:12.763638 32703 net.cpp:165] Memory required for data: 1370571520
I0312 11:06:12.763648 32703 layer_factory.hpp:76] Creating layer pool5
I0312 11:06:12.763675 32703 net.cpp:106] Creating Layer pool5
I0312 11:06:12.763690 32703 net.cpp:454] pool5 <- conv5
I0312 11:06:12.763707 32703 net.cpp:411] pool5 -> pool5
I0312 11:06:12.763988 32703 net.cpp:150] Setting up pool5
I0312 11:06:12.764008 32703 net.cpp:157] Top shape: 64 256 12 12 (2359296)
I0312 11:06:12.764017 32703 net.cpp:165] Memory required for data: 1380008704
I0312 11:06:12.764027 32703 layer_factory.hpp:76] Creating layer conv6
I0312 11:06:12.764051 32703 net.cpp:106] Creating Layer conv6
I0312 11:06:12.764066 32703 net.cpp:454] conv6 <- pool5
I0312 11:06:12.764088 32703 net.cpp:411] conv6 -> conv6
I0312 11:06:13.124368 32703 cudnn_conv_layer.cpp:198] Reallocating workspace storage: 110592
I0312 11:06:13.124662 32703 net.cpp:150] Setting up conv6
I0312 11:06:13.124692 32703 net.cpp:157] Top shape: 64 4096 2 2 (1048576)
I0312 11:06:13.124706 32703 net.cpp:165] Memory required for data: 1384203008
I0312 11:06:13.124732 32703 layer_factory.hpp:76] Creating layer relu6
I0312 11:06:13.124760 32703 net.cpp:106] Creating Layer relu6
I0312 11:06:13.124778 32703 net.cpp:454] relu6 <- conv6
I0312 11:06:13.124799 32703 net.cpp:397] relu6 -> conv6 (in-place)
I0312 11:06:13.125231 32703 net.cpp:150] Setting up relu6
I0312 11:06:13.125252 32703 net.cpp:157] Top shape: 64 4096 2 2 (1048576)
I0312 11:06:13.125272 32703 net.cpp:165] Memory required for data: 1388397312
I0312 11:06:13.125283 32703 layer_factory.hpp:76] Creating layer drop6
I0312 11:06:13.125315 32703 net.cpp:106] Creating Layer drop6
I0312 11:06:13.125329 32703 net.cpp:454] drop6 <- conv6
I0312 11:06:13.125345 32703 net.cpp:397] drop6 -> conv6 (in-place)
I0312 11:06:13.125411 32703 net.cpp:150] Setting up drop6
I0312 11:06:13.125428 32703 net.cpp:157] Top shape: 64 4096 2 2 (1048576)
I0312 11:06:13.125438 32703 net.cpp:165] Memory required for data: 1392591616
I0312 11:06:13.125448 32703 layer_factory.hpp:76] Creating layer conv7
I0312 11:06:13.125474 32703 net.cpp:106] Creating Layer conv7
I0312 11:06:13.125488 32703 net.cpp:454] conv7 <- conv6
I0312 11:06:13.125504 32703 net.cpp:411] conv7 -> conv7
I0312 11:06:13.291402 32703 cudnn_conv_layer.cpp:198] Reallocating workspace storage: 12582912
I0312 11:06:13.291735 32703 net.cpp:150] Setting up conv7
I0312 11:06:13.291774 32703 net.cpp:157] Top shape: 64 4096 2 2 (1048576)
I0312 11:06:13.291788 32703 net.cpp:165] Memory required for data: 1396785920
I0312 11:06:13.291832 32703 layer_factory.hpp:76] Creating layer relu7
I0312 11:06:13.291905 32703 net.cpp:106] Creating Layer relu7
I0312 11:06:13.291945 32703 net.cpp:454] relu7 <- conv7
I0312 11:06:13.292021 32703 net.cpp:397] relu7 -> conv7 (in-place)
I0312 11:06:13.292454 32703 net.cpp:150] Setting up relu7
I0312 11:06:13.292475 32703 net.cpp:157] Top shape: 64 4096 2 2 (1048576)
I0312 11:06:13.292485 32703 net.cpp:165] Memory required for data: 1400980224
I0312 11:06:13.292508 32703 layer_factory.hpp:76] Creating layer drop7
I0312 11:06:13.292528 32703 net.cpp:106] Creating Layer drop7
I0312 11:06:13.292538 32703 net.cpp:454] drop7 <- conv7
I0312 11:06:13.292558 32703 net.cpp:397] drop7 -> conv7 (in-place)
I0312 11:06:13.292616 32703 net.cpp:150] Setting up drop7
I0312 11:06:13.292634 32703 net.cpp:157] Top shape: 64 4096 2 2 (1048576)
I0312 11:06:13.292644 32703 net.cpp:165] Memory required for data: 1405174528
I0312 11:06:13.292654 32703 layer_factory.hpp:76] Creating layer conv8
I0312 11:06:13.292688 32703 net.cpp:106] Creating Layer conv8
I0312 11:06:13.292701 32703 net.cpp:454] conv8 <- conv7
I0312 11:06:13.292722 32703 net.cpp:411] conv8 -> conv8
I0312 11:06:13.294173 32703 cudnn_conv_layer.cpp:198] Reallocating workspace storage: 12582912
I0312 11:06:13.294468 32703 net.cpp:150] Setting up conv8
I0312 11:06:13.294491 32703 net.cpp:157] Top shape: 64 3 2 2 (768)
I0312 11:06:13.294500 32703 net.cpp:165] Memory required for data: 1405177600
I0312 11:06:13.294520 32703 layer_factory.hpp:76] Creating layer pool6
I0312 11:06:13.294543 32703 net.cpp:106] Creating Layer pool6
I0312 11:06:13.294556 32703 net.cpp:454] pool6 <- conv8
I0312 11:06:13.294577 32703 net.cpp:411] pool6 -> pool6
I0312 11:06:13.294844 32703 net.cpp:150] Setting up pool6
I0312 11:06:13.294868 32703 net.cpp:157] Top shape: 64 3 1 1 (192)
I0312 11:06:13.294878 32703 net.cpp:165] Memory required for data: 1405178368
I0312 11:06:13.294889 32703 layer_factory.hpp:76] Creating layer pool6_pool6_0_split
I0312 11:06:13.294915 32703 net.cpp:106] Creating Layer pool6_pool6_0_split
I0312 11:06:13.294930 32703 net.cpp:454] pool6_pool6_0_split <- pool6
I0312 11:06:13.294945 32703 net.cpp:411] pool6_pool6_0_split -> pool6_pool6_0_split_0
I0312 11:06:13.294965 32703 net.cpp:411] pool6_pool6_0_split -> pool6_pool6_0_split_1
I0312 11:06:13.295049 32703 net.cpp:150] Setting up pool6_pool6_0_split
I0312 11:06:13.295075 32703 net.cpp:157] Top shape: 64 3 1 1 (192)
I0312 11:06:13.295090 32703 net.cpp:157] Top shape: 64 3 1 1 (192)
I0312 11:06:13.295100 32703 net.cpp:165] Memory required for data: 1405179904
I0312 11:06:13.295110 32703 layer_factory.hpp:76] Creating layer loss
I0312 11:06:13.295150 32703 net.cpp:106] Creating Layer loss
I0312 11:06:13.295178 32703 net.cpp:454] loss <- pool6_pool6_0_split_0
I0312 11:06:13.295192 32703 net.cpp:454] loss <- label_data_1_split_0
I0312 11:06:13.295215 32703 net.cpp:411] loss -> loss
…
I0312 11:06:13.298952 32703 net.cpp:322] The NetState phase (1) differed from the phase (0) specified by a rule in layer data
I0312 11:06:13.299402 32703 net.cpp:49] Initializing net from parameters: 
name: "VGG_CNN_F"
state {
  phase: TEST
}
layer {
  name: "data"
  type: "Data"
  top: "data"
  top: "label"
  include {
    phase: TEST
  }
  transform_param {
    mirror: false
    mean_value: 126.348
    mean_value: 122.543
    mean_value: 114.744
  }
  data_param {
    source: "/cvgl/u/rsluo/daytime/test/test_data_shuffled.lmdb"
    batch_size: 8
    backend: LMDB
  }
}
layer {
  name: "conv1"
  type: "Convolution"
  bottom: "data"
  top: "conv1"
  convolution_param {
    num_output: 64
    kernel_size: 11
    stride: 4
    weight_filler {
      type: "xavier"
    }
    bias_filler {
      type: "constant"
      value: 0.1
    }
  }
}
layer {
  name: "relu1"
  type: "ReLU"
  bottom: "conv1"
  top: "conv1"
}
layer {
  name: "norm1"
  type: "LRN"
  bottom: "conv1"
  top: "norm1"
  lrn_param {
    local_size: 5
    alpha: 0.0005
    beta: 0.75
    k: 2
  }
}
layer {
  name: "pool1"
  type: "Pooling"
  bottom: "norm1"
  top: "pool1"
  pooling_param {
    pool: MAX
    kernel_size: 3
    stride: 2
  }
}
layer {
  name: "conv2"
  type: "Convolution"
  bottom: "pool1"
  top: "conv2"
  convolution_param {
    num_output: 256
    pad: 2
    kernel_size: 5
    weight_filler {
      type: "xavier"
    }
    bias_filler {
      type: "constant"
      value: 0.1
    }
  }
}
layer {
  name: "relu2"
  type: "ReLU"
  bottom: "conv2"
  top: "conv2"
}
layer {
  name: "norm2"
  type: "LRN"
  bottom: "conv2"
  top: "norm2"
  lrn_param {
    local_size: 5
    alpha: 0.0005
    beta: 0.75
    k: 2
  }
}
layer {
  name: "pool2"
  type: "Pooling"
  bottom: "norm2"
  top: "pool2"
  pooling_param {
    pool: MAX
    kernel_size: 3
    stride: 2
  }
}
layer {
  name: "conv3"
  type: "Convolution"
  bottom: "pool2"
  top: "conv3"
  convolution_param {
    num_output: 256
    pad: 1
    kernel_size: 3
    weight_filler {
      type: "xavier"
    }
    bias_filler {
      type: "constant"
      value: 0.1
    }
  }
}
layer {
  name: "relu3"
  type: "ReLU"
  bottom: "conv3"
  top: "conv3"
}
layer {
  name: "conv4"
  type: "Convolution"
  bottom: "conv3"
  top: "conv4"
  convolution_param {
    num_output: 256
    pad: 1
    kernel_size: 3
    weight_filler {
      type: "xavier"
    }
    bias_filler {
      type: "constant"
      value: 0.1
    }
  }
}
layer {
  name: "relu4"
  type: "ReLU"
  bottom: "conv4"
  top: "conv4"
}
layer {
  name: "conv5"
  type: "Convolution"
  bottom: "conv4"
  top: "conv5"
  convolution_param {
    num_output: 256
    pad: 1
    kernel_size: 3
    weight_filler {
      type: "xavier"
    }
    bias_filler {
      type: "constant"
      value: 0.1
    }
  }
}
layer {
  name: "relu5"
  type: "ReLU"
  bottom: "conv5"
  top: "conv5"
}
layer {
  name: "pool5"
  type: "Pooling"
  bottom: "conv5"
  top: "pool5"
  pooling_param {
    pool: MAX
    kernel_size: 3
    stride: 2
  }
}
layer {
  name: "conv6"
  type: "Convolution"
  bottom: "pool5"
  top: "conv6"
  convolution_param {
    num_output: 4096
    pad: 0
    kernel_size: 6
    stride: 6
    weight_filler {
      type: "xavier"
    }
    bias_filler {
      type: "constant"
      value: 0.1
    }
  }
}
layer {
  name: "relu6"
  type: "ReLU"
  bottom: "conv6"
  top: "conv6"
}
layer {
  name: "drop6"
  type: "Dropout"
  bottom: "conv6"
  top: "conv6"
  dropout_param {
    dropout_ratio: 0.5
  }
}
layer {
  name: "conv7"
  type: "Convolution"
  bottom: "conv6"
  top: "conv7"
  convolution_param {
    num_output: 4096
    pad: 0
    kernel_size: 1
    stride: 1
    weight_filler {
      type: "xavier"
    }
    bias_filler {
      type: "constant"
      value: 0.1
    }
  }
}
layer {
  name: "relu7"
  type: "ReLU"
  bottom: "conv7"
  top: "conv7"
}
layer {
  name: "drop7"
  type: "Dropout"
  bottom: "conv7"
  top: "conv7"
  dropout_param {
    dropout_ratio: 0.5
  }
}
layer {
  name: "conv8"
  type: "Convolution"
  bottom: "conv7"
  top: "conv8"
  convolution_param {
    num_output: 3
    pad: 0
    kernel_size: 1
    stride: 1
    weight_filler {
      type: "xavier"
    }
    bias_filler {
      type: "constant"
      value: 0.1
    }
  }
}
layer {
  name: "pool6"
  type: "Pooling"
  bottom: "conv8"
  top: "pool6"
  pooling_param {
    pool: AVE
    kernel_size: 2
    stride: 1
  }
}
layer {
  name: "loss"
  type: "SoftmaxWithLoss"
  bottom: "pool6"
  bottom: "label"
  top: "loss"
}
layer {
  name: "acc"
  type: "Accuracy"
  bottom: "pool6"
  bottom: "label"
  top: "acc"
  accuracy_param {
    top_k: 1
  }
}
I0312 11:06:13.299657 32703 layer_factory.hpp:76] Creating layer data
I0312 11:06:13.299762 32703 net.cpp:106] Creating Layer data
I0312 11:06:13.299803 32703 net.cpp:411] data -> data
I0312 11:06:13.299821 32703 net.cpp:411] data -> label
I0312 11:06:13.303585 32710 db_lmdb.cpp:38] Opened lmdb /cvgl/u/rsluo/daytime/test/test_data_shuffled.lmdb
I0312 11:06:13.304880 32703 data_layer.cpp:45] output data size: 8,3,400,400
I0312 11:06:13.346179 32703 net.cpp:150] Setting up data
I0312 11:06:13.346217 32703 net.cpp:157] Top shape: 8 3 400 400 (3840000)
I0312 11:06:13.346225 32703 net.cpp:157] Top shape: 8 (8)
I0312 11:06:13.346230 32703 net.cpp:165] Memory required for data: 15360032
I0312 11:06:13.346251 32703 layer_factory.hpp:76] Creating layer label_data_1_split
I0312 11:06:13.346271 32703 net.cpp:106] Creating Layer label_data_1_split
I0312 11:06:13.346276 32703 net.cpp:454] label_data_1_split <- label
I0312 11:06:13.346289 32703 net.cpp:411] label_data_1_split -> label_data_1_split_0
I0312 11:06:13.346303 32703 net.cpp:411] label_data_1_split -> label_data_1_split_1
I0312 11:06:13.346534 32703 net.cpp:150] Setting up label_data_1_split
I0312 11:06:13.346555 32703 net.cpp:157] Top shape: 8 (8)
I0312 11:06:13.346563 32703 net.cpp:157] Top shape: 8 (8)
I0312 11:06:13.346603 32703 net.cpp:165] Memory required for data: 15360096
I0312 11:06:13.346609 32703 layer_factory.hpp:76] Creating layer conv1
I0312 11:06:13.346626 32703 net.cpp:106] Creating Layer conv1
I0312 11:06:13.346632 32703 net.cpp:454] conv1 <- data
I0312 11:06:13.346644 32703 net.cpp:411] conv1 -> conv1
I0312 11:06:13.350844 32703 net.cpp:150] Setting up conv1
I0312 11:06:13.350867 32703 net.cpp:157] Top shape: 8 64 98 98 (4917248)
I0312 11:06:13.350872 32703 net.cpp:165] Memory required for data: 35029088
I0312 11:06:13.350901 32703 layer_factory.hpp:76] Creating layer relu1
I0312 11:06:13.350916 32703 net.cpp:106] Creating Layer relu1
I0312 11:06:13.350922 32703 net.cpp:454] relu1 <- conv1
I0312 11:06:13.350929 32703 net.cpp:397] relu1 -> conv1 (in-place)
I0312 11:06:13.351979 32703 net.cpp:150] Setting up relu1
I0312 11:06:13.352012 32703 net.cpp:157] Top shape: 8 64 98 98 (4917248)
I0312 11:06:13.352018 32703 net.cpp:165] Memory required for data: 54698080
I0312 11:06:13.352025 32703 layer_factory.hpp:76] Creating layer norm1
I0312 11:06:13.352048 32703 net.cpp:106] Creating Layer norm1
I0312 11:06:13.352062 32703 net.cpp:454] norm1 <- conv1
I0312 11:06:13.352082 32703 net.cpp:411] norm1 -> norm1
I0312 11:06:13.352581 32703 net.cpp:150] Setting up norm1
I0312 11:06:13.352601 32703 net.cpp:157] Top shape: 8 64 98 98 (4917248)
I0312 11:06:13.352605 32703 net.cpp:165] Memory required for data: 74367072
I0312 11:06:13.352612 32703 layer_factory.hpp:76] Creating layer pool1
I0312 11:06:13.352622 32703 net.cpp:106] Creating Layer pool1
I0312 11:06:13.352627 32703 net.cpp:454] pool1 <- norm1
I0312 11:06:13.352645 32703 net.cpp:411] pool1 -> pool1
I0312 11:06:13.352893 32703 net.cpp:150] Setting up pool1
I0312 11:06:13.352908 32703 net.cpp:157] Top shape: 8 64 49 49 (1229312)
I0312 11:06:13.352913 32703 net.cpp:165] Memory required for data: 79284320
I0312 11:06:13.352918 32703 layer_factory.hpp:76] Creating layer conv2
I0312 11:06:13.352946 32703 net.cpp:106] Creating Layer conv2
I0312 11:06:13.352952 32703 net.cpp:454] conv2 <- pool1
I0312 11:06:13.352962 32703 net.cpp:411] conv2 -> conv2
I0312 11:06:13.358558 32703 cudnn_conv_layer.cpp:198] Reallocating workspace storage: 19200
I0312 11:06:13.358599 32703 net.cpp:150] Setting up conv2
I0312 11:06:13.358611 32703 net.cpp:157] Top shape: 8 256 49 49 (4917248)
I0312 11:06:13.358618 32703 net.cpp:165] Memory required for data: 98953312
I0312 11:06:13.358638 32703 layer_factory.hpp:76] Creating layer relu2
I0312 11:06:13.358654 32703 net.cpp:106] Creating Layer relu2
I0312 11:06:13.358660 32703 net.cpp:454] relu2 <- conv2
I0312 11:06:13.358669 32703 net.cpp:397] relu2 -> conv2 (in-place)
I0312 11:06:13.359133 32703 net.cpp:150] Setting up relu2
I0312 11:06:13.359151 32703 net.cpp:157] Top shape: 8 256 49 49 (4917248)
I0312 11:06:13.359169 32703 net.cpp:165] Memory required for data: 118622304
I0312 11:06:13.359175 32703 layer_factory.hpp:76] Creating layer norm2
I0312 11:06:13.359192 32703 net.cpp:106] Creating Layer norm2
I0312 11:06:13.359197 32703 net.cpp:454] norm2 <- conv2
I0312 11:06:13.359206 32703 net.cpp:411] norm2 -> norm2
I0312 11:06:13.359462 32703 net.cpp:150] Setting up norm2
I0312 11:06:13.359478 32703 net.cpp:157] Top shape: 8 256 49 49 (4917248)
I0312 11:06:13.359483 32703 net.cpp:165] Memory required for data: 138291296
I0312 11:06:13.359489 32703 layer_factory.hpp:76] Creating layer pool2
I0312 11:06:13.359501 32703 net.cpp:106] Creating Layer pool2
I0312 11:06:13.359508 32703 net.cpp:454] pool2 <- norm2
I0312 11:06:13.359514 32703 net.cpp:411] pool2 -> pool2
I0312 11:06:13.359987 32703 net.cpp:150] Setting up pool2
I0312 11:06:13.360004 32703 net.cpp:157] Top shape: 8 256 24 24 (1179648)
I0312 11:06:13.360009 32703 net.cpp:165] Memory required for data: 143009888
I0312 11:06:13.360015 32703 layer_factory.hpp:76] Creating layer conv3
I0312 11:06:13.360029 32703 net.cpp:106] Creating Layer conv3
I0312 11:06:13.360035 32703 net.cpp:454] conv3 <- pool2
I0312 11:06:13.360044 32703 net.cpp:411] conv3 -> conv3
I0312 11:06:13.367205 32703 net.cpp:150] Setting up conv3
I0312 11:06:13.367238 32703 net.cpp:157] Top shape: 8 256 24 24 (1179648)
I0312 11:06:13.367244 32703 net.cpp:165] Memory required for data: 147728480
I0312 11:06:13.367262 32703 layer_factory.hpp:76] Creating layer relu3
I0312 11:06:13.367276 32703 net.cpp:106] Creating Layer relu3
I0312 11:06:13.367282 32703 net.cpp:454] relu3 <- conv3
I0312 11:06:13.367291 32703 net.cpp:397] relu3 -> conv3 (in-place)
I0312 11:06:13.367722 32703 net.cpp:150] Setting up relu3
I0312 11:06:13.367739 32703 net.cpp:157] Top shape: 8 256 24 24 (1179648)
I0312 11:06:13.367744 32703 net.cpp:165] Memory required for data: 152447072
I0312 11:06:13.367750 32703 layer_factory.hpp:76] Creating layer conv4
I0312 11:06:13.367766 32703 net.cpp:106] Creating Layer conv4
I0312 11:06:13.367771 32703 net.cpp:454] conv4 <- conv3
I0312 11:06:13.367782 32703 net.cpp:411] conv4 -> conv4
I0312 11:06:13.377084 32703 net.cpp:150] Setting up conv4
I0312 11:06:13.377115 32703 net.cpp:157] Top shape: 8 256 24 24 (1179648)
I0312 11:06:13.377120 32703 net.cpp:165] Memory required for data: 157165664
I0312 11:06:13.377132 32703 layer_factory.hpp:76] Creating layer relu4
I0312 11:06:13.377148 32703 net.cpp:106] Creating Layer relu4
I0312 11:06:13.377156 32703 net.cpp:454] relu4 <- conv4
I0312 11:06:13.377164 32703 net.cpp:397] relu4 -> conv4 (in-place)
I0312 11:06:13.377388 32703 net.cpp:150] Setting up relu4
I0312 11:06:13.377403 32703 net.cpp:157] Top shape: 8 256 24 24 (1179648)
I0312 11:06:13.377408 32703 net.cpp:165] Memory required for data: 161884256
I0312 11:06:13.377414 32703 layer_factory.hpp:76] Creating layer conv5
I0312 11:06:13.377429 32703 net.cpp:106] Creating Layer conv5
I0312 11:06:13.377434 32703 net.cpp:454] conv5 <- conv4
I0312 11:06:13.377445 32703 net.cpp:411] conv5 -> conv5
I0312 11:06:13.384804 32703 net.cpp:150] Setting up conv5
I0312 11:06:13.384835 32703 net.cpp:157] Top shape: 8 256 24 24 (1179648)
I0312 11:06:13.384840 32703 net.cpp:165] Memory required for data: 166602848
I0312 11:06:13.384860 32703 layer_factory.hpp:76] Creating layer relu5
I0312 11:06:13.384873 32703 net.cpp:106] Creating Layer relu5
I0312 11:06:13.384881 32703 net.cpp:454] relu5 <- conv5
I0312 11:06:13.384892 32703 net.cpp:397] relu5 -> conv5 (in-place)
I0312 11:06:13.385330 32703 net.cpp:150] Setting up relu5
I0312 11:06:13.385346 32703 net.cpp:157] Top shape: 8 256 24 24 (1179648)
I0312 11:06:13.385352 32703 net.cpp:165] Memory required for data: 171321440
I0312 11:06:13.385359 32703 layer_factory.hpp:76] Creating layer pool5
I0312 11:06:13.385375 32703 net.cpp:106] Creating Layer pool5
I0312 11:06:13.385381 32703 net.cpp:454] pool5 <- conv5
I0312 11:06:13.385391 32703 net.cpp:411] pool5 -> pool5
I0312 11:06:13.385648 32703 net.cpp:150] Setting up pool5
I0312 11:06:13.385664 32703 net.cpp:157] Top shape: 8 256 12 12 (294912)
I0312 11:06:13.385669 32703 net.cpp:165] Memory required for data: 172501088
I0312 11:06:13.385687 32703 layer_factory.hpp:76] Creating layer conv6
I0312 11:06:13.385706 32703 net.cpp:106] Creating Layer conv6
I0312 11:06:13.385712 32703 net.cpp:454] conv6 <- pool5
I0312 11:06:13.385721 32703 net.cpp:411] conv6 -> conv6
I0312 11:06:13.747092 32703 cudnn_conv_layer.cpp:198] Reallocating workspace storage: 110592
I0312 11:06:13.747167 32703 net.cpp:150] Setting up conv6
I0312 11:06:13.747187 32703 net.cpp:157] Top shape: 8 4096 2 2 (131072)
I0312 11:06:13.747194 32703 net.cpp:165] Memory required for data: 173025376
I0312 11:06:13.747210 32703 layer_factory.hpp:76] Creating layer relu6
I0312 11:06:13.747233 32703 net.cpp:106] Creating Layer relu6
I0312 11:06:13.747241 32703 net.cpp:454] relu6 <- conv6
I0312 11:06:13.747253 32703 net.cpp:397] relu6 -> conv6 (in-place)
I0312 11:06:13.747673 32703 net.cpp:150] Setting up relu6
I0312 11:06:13.747700 32703 net.cpp:157] Top shape: 8 4096 2 2 (131072)
I0312 11:06:13.747707 32703 net.cpp:165] Memory required for data: 173549664
I0312 11:06:13.747712 32703 layer_factory.hpp:76] Creating layer drop6
I0312 11:06:13.747723 32703 net.cpp:106] Creating Layer drop6
I0312 11:06:13.747771 32703 net.cpp:454] drop6 <- conv6
I0312 11:06:13.747782 32703 net.cpp:397] drop6 -> conv6 (in-place)
I0312 11:06:13.747827 32703 net.cpp:150] Setting up drop6
I0312 11:06:13.747838 32703 net.cpp:157] Top shape: 8 4096 2 2 (131072)
I0312 11:06:13.747843 32703 net.cpp:165] Memory required for data: 174073952
I0312 11:06:13.747848 32703 layer_factory.hpp:76] Creating layer conv7
I0312 11:06:13.747866 32703 net.cpp:106] Creating Layer conv7
I0312 11:06:13.747871 32703 net.cpp:454] conv7 <- conv6
I0312 11:06:13.747880 32703 net.cpp:411] conv7 -> conv7
I0312 11:06:13.907063 32703 net.cpp:150] Setting up conv7
I0312 11:06:13.907126 32703 net.cpp:157] Top shape: 8 4096 2 2 (131072)
I0312 11:06:13.907133 32703 net.cpp:165] Memory required for data: 174598240
I0312 11:06:13.907150 32703 layer_factory.hpp:76] Creating layer relu7
I0312 11:06:13.907168 32703 net.cpp:106] Creating Layer relu7
I0312 11:06:13.907192 32703 net.cpp:454] relu7 <- conv7
I0312 11:06:13.907205 32703 net.cpp:397] relu7 -> conv7 (in-place)
I0312 11:06:13.907667 32703 net.cpp:150] Setting up relu7
I0312 11:06:13.907685 32703 net.cpp:157] Top shape: 8 4096 2 2 (131072)
I0312 11:06:13.907691 32703 net.cpp:165] Memory required for data: 175122528
I0312 11:06:13.907696 32703 layer_factory.hpp:76] Creating layer drop7
I0312 11:06:13.907706 32703 net.cpp:106] Creating Layer drop7
I0312 11:06:13.907712 32703 net.cpp:454] drop7 <- conv7
I0312 11:06:13.907719 32703 net.cpp:397] drop7 -> conv7 (in-place)
I0312 11:06:13.907776 32703 net.cpp:150] Setting up drop7
I0312 11:06:13.907789 32703 net.cpp:157] Top shape: 8 4096 2 2 (131072)
I0312 11:06:13.907794 32703 net.cpp:165] Memory required for data: 175646816
I0312 11:06:13.907799 32703 layer_factory.hpp:76] Creating layer conv8
I0312 11:06:13.907816 32703 net.cpp:106] Creating Layer conv8
I0312 11:06:13.907822 32703 net.cpp:454] conv8 <- conv7
I0312 11:06:13.907834 32703 net.cpp:411] conv8 -> conv8
I0312 11:06:13.909296 32703 cudnn_conv_layer.cpp:198] Reallocating workspace storage: 1572864
I0312 11:06:13.909559 32703 net.cpp:150] Setting up conv8
I0312 11:06:13.909576 32703 net.cpp:157] Top shape: 8 3 2 2 (96)
I0312 11:06:13.909582 32703 net.cpp:165] Memory required for data: 175647200
I0312 11:06:13.909593 32703 layer_factory.hpp:76] Creating layer pool6
I0312 11:06:13.909607 32703 net.cpp:106] Creating Layer pool6
I0312 11:06:13.909613 32703 net.cpp:454] pool6 <- conv8
I0312 11:06:13.909637 32703 net.cpp:411] pool6 -> pool6
I0312 11:06:13.909910 32703 net.cpp:150] Setting up pool6
I0312 11:06:13.909925 32703 net.cpp:157] Top shape: 8 3 1 1 (24)
I0312 11:06:13.909930 32703 net.cpp:165] Memory required for data: 175647296
I0312 11:06:13.909936 32703 layer_factory.hpp:76] Creating layer pool6_pool6_0_split
I0312 11:06:13.909948 32703 net.cpp:106] Creating Layer pool6_pool6_0_split
I0312 11:06:13.909953 32703 net.cpp:454] pool6_pool6_0_split <- pool6
I0312 11:06:13.909961 32703 net.cpp:411] pool6_pool6_0_split -> pool6_pool6_0_split_0
I0312 11:06:13.909970 32703 net.cpp:411] pool6_pool6_0_split -> pool6_pool6_0_split_1
I0312 11:06:13.910048 32703 net.cpp:150] Setting up pool6_pool6_0_split
I0312 11:06:13.910061 32703 net.cpp:157] Top shape: 8 3 1 1 (24)
I0312 11:06:13.910068 32703 net.cpp:157] Top shape: 8 3 1 1 (24)
I0312 11:06:13.910073 32703 net.cpp:165] Memory required for data: 175647488
I0312 11:06:13.910079 32703 layer_factory.hpp:76] Creating layer loss
I0312 11:06:13.910086 32703 net.cpp:106] Creating Layer loss
I0312 11:06:13.910092 32703 net.cpp:454] loss <- pool6_pool6_0_split_0
I0312 11:06:13.910099 32703 net.cpp:454] loss <- label_data_1_split_0
I0312 11:06:13.910106 32703 net.cpp:411] loss -> loss
…
